voice_assistant/microwakeword/models/hey_wuud_hows.tflite (tflite, 63536 bytes, 18 tensors)

tfl.pseudo_qconst1 i1 [1, 2368] scale=0.005309008 zero_point=0
-0.122107185 -0.03185405 -0.10087115 -0.18581527 -0.28668642 -0.15927024 -0.14334321 0.17519727
-0.35039455 0.2017423 0.31323147 -0.18050627 -0.069017105 -0.02654504 0.30261347 -0.05309008
-0.3238495 -0.19112429 -0.08494413 -0.005309008 -0.1274162 -0.11148917 -0.17519727 0.29199544
-0.15396124 -0.3928666 -0.07963512 -0.08494413 0.30792248 0.021236032 -0.29199544 0.047781073
-0.21236032 -0.26545042 0.02654504 -0.0637081 -0.3344675 -0.08494413 -0.07432611 -0.02654504
-0.05839909 0.021236032 -0.29730445 -0.14334321 -0.17519727 0.18050627 -0.16457924 0.14865223
-0.14334321 -0.15927024 -0.095562145 0.4034846 0.07963512 -0.042472064 -0.02654504 -0.069017105
-0.2017423 0.21766934 -0.2548324 -0.17519727 -0.11679818 -0.11679818 -0.14865223 -0.16988826
-0.13803421 -0.037163056 -0.07432611 -0.07963512 -0.010618016 -0.13803421 0.0 0.1274162
-0.28668642 0.24421437 0.16457924 -0.11679818 -0.05309008 -0.015927024 0.23890537 0.047781073
-0.2707594 -0.15396124 -0.05309008 -0.037163056 -0.010618016 -0.047781073 -0.14334321 0.122107185
-0.05309008 -0.18050627 -0.11148917 -0.1274162 0.27606842 0.021236032 -0.1964333 0.05839909
-0.08494413 -0.2070513 -0.03185405 -0.05309008 -0.18581527 0.010618016 -0.042472064 0.03185405
-0.07963512 0.005309008 -0.16457924 -0.037163056 -0.069017105 0.122107185 -0.13272521 0.10618016
0.005309008 -0.15927024 -0.037163056 0.29199544 0.08494413 0.042472064 0.05309008 -0.07432611
-0.010618016 0.10618016 -0.18050627 -0.122107185 -0.11679818 -0.09025314 -0.11148917 -0.14334321
0.0 -0.010618016 -0.005309008 -0.03185405 0.095562145 -0.08494413 0.0 0.0637081
-0.16457924 0.21236032 0.14334321 -0.047781073 0.010618016 0.037163056 0.22297834 0.015927024
-0.22297834 -0.07963512 0.037163056 -0.03185405 -0.042472064 -0.11148917 -0.095562145 0.10087115
-0.03185405 -0.0637081 -0.0637081 -0.10618016 0.21236032 0.010618016 -0.10087115 0.07432611
0.0 -0.05309008 -0.047781073 0.015927024 -0.18581527 0.095562145 -0.015927024 -0.05839909
0.010618016 0.047781073 -0.042472064 -0.03185405 0.047781073 0.16457924 -0.047781073 0.005309008
0.05839909 -0.037163056 -0.11679818 0.21236032 -0.02654504 -0.042472064 0.10618016 -0.05309008
0.047781073 0.05839909 -0.122107185 -0.09025314 -0.0637081 -0.005309008 -0.11148917 -0.09025314
0.03185405 -0.05309008 0.0637081 -0.1274162 0.14334321 -0.042472064 0.005309008 0.037163056
-0.10618016 0.08494413 0.069017105 0.0 -0.005309008 0.05309008 0.21236032 -0.05839909
-0.22297834 -0.0637081 0.05309008 0.02654504 0.005309008 -0.18581527 -0.1274162 0.07963512
0.047781073 -0.037163056 -0.05839909 -0.021236032 0.15927024 0.0 -0.07432611 0.037163056
0.037163056 -0.069017105 -0.03185405 0.03185405 -0.09025314 0.042472064 -0.05839909 0.0
-0.07963512 0.08494413 0.0 0.05839909 0.069017105 0.11679818 -0.047781073 0.069017105
-0.05309008 -0.05839909 -0.0637081 0.14865223 -0.07963512 0.0 0.18581527 -0.042472064
-0.021236032 0.005309008 -0.1274162 -0.14334321 0.0 -0.07963512 -0.021236032 -0.10618016
00000000: e9fa eddd cae2 e521 be26 3bde f3fb 39f6
00000010: c3dc f0ff e8eb df37 e3b6 f1f0 3a04 c909
00000020: d8ce 05f4 c1f0 f2fb f504 c8e5 df22 e11c
00000030: e5e2 ee4c 0ff8 fbf3 da29 d0df eaea e4e0
00000040: e6f9 f2f1 fee6 0018 ca2e 1fea f6fd 2d09
00000050: cde3 f6f9 fef7 e517 f6de ebe8 3404 db0b
00000060: f0d9 faf6 dd02 f806 f101 e1f9 f317 e714
00000070: 01e2 f937 1008 0af2 fe14 dee9 eaef ebe5
00000080: 00fe fffa 12f0 000c e128 1bf7 0207 2a03
00000090: d6f1 07fa f8eb ee13 faf4 f4ec 2802 ed0e
000000a0: 00f6 f703 dd12 fdf5 0209 f8fa 091f f701
000000b0: 0bf9 ea28 fbf8 14f6 090b e9ef f4ff ebef
000000c0: 06f6 0ce8 1bf8 0107 ec10 0d00 ff0a 28f5
000000d0: d6f4 0a05 01dd e80f 09f9 f5fc 1e00 f207
000000e0: 07f3 fa06 ef08 f500 f110 000b 0d16 f70d
000000f0: f6f5 f41c f100 23f8 fc01 e8e5 00f1 fcec

tfl.pseudo_qconst3 i1 [64, 1, 1, 64]
10 -48 71 -6 35 13 53 15
112 0 -72 12 34 92 -45 27
14 -56 39 -17 -43 60 46 101
-51 21 -30 -19 -13 -59 -72 81
-16 -54 23 68 -16 43 4 68
-34 -14 3 41 80 -10 18 48
-37 19 61 -5 -15 -7 -55 -49
-48 -6 127 -34 52 52 -32 87
-85 -43 97 -8 -27 42 -74 72
48 -9 8 -54 33 4 19 -18
-34 -37 26 73 -21 -50 -20 -63
58 -25 96 -52 68 28 21 47
-7 -99 -50 71 25 41 16 5
42 -21 16 -11 2 0 -64 -20
-127 24 19 -42 -3 1 -46 65
17 14 -22 26 -39 -39 35 91
0 -6 0 33 -108 36 -31 94
-56 -22 -21 59 -59 -36 -17 26
51 -27 -44 32 -88 8 27 116
18 -84 60 52 20 -24 -46 13
-42 -44 -49 76 -93 -9 -71 4
84 -87 22 111 71 36 -17 50
-2 -127 20 -52 -3 -23 -12 23
-36 8 61 44 46 -16 -18 5
1 12 -9 -16 14 40 74 32
52 81 34 14 -1 4 7 52
-45 -30 -16 19 36 44 -46 10
6 -7 -6 -42 -9 91 -75 -19
-18 -65 -5 99 -41 -43 -104 26
-27 48 84 -39 127 67 -26 45
-8 -81 -35 41 56 -17 -25 47
26 53 12 -71 0 -32 54 11
00000000: 0ad0 47fa 230d 350f 7000 b80c 225c d31b
00000010: 0ec8 27ef d53c 2e65 cd15 e2ed f3c5 b851
00000020: f0ca 1744 f02b 0444 def2 0329 50f6 1230
00000030: db13 3dfb f1f9 c9cf d0fa 7fde 3434 e057
00000040: abd5 61f8 e52a b648 30f7 08ca 2104 13ee
00000050: dedb 1a49 ebce ecc1 3ae7 60cc 441c 152f
00000060: f99d ce47 1929 1005 2aeb 10f5 0200 c0ec
00000070: 8118 13d6 fd01 d241 110e ea1a d9d9 235b
00000080: 00fa 0021 9424 e15e c8ea eb3b c5dc ef1a
00000090: 33e5 d420 a808 1b74 12ac 3c34 14e8 d20d
000000a0: d6d4 cf4c a3f7 b904 54a9 166f 4724 ef32
000000b0: fe81 14cc fde9 f417 dc08 3d2c 2ef0 ee05
000000c0: 010c f7f0 0e28 4a20 3451 220e ff04 0734
000000d0: d3e2 f013 242c d20a 06f9 fad6 f75b b5ed
000000e0: eebf fb63 d7d5 981a e530 54d9 7f43 e62d
000000f0: f8af dd29 38ef e72f 1a35 0cb9 00e0 360b

tfl.pseudo_qconst5 i1 [1, 23, 1, 64]
-127 -10 -10 -38 -115 80 44 -26
-127 -127 68 -108 127 -64 43 -8
-47 127 127 -127 25 -101 -127 127
72 -127 -127 58 56 -101 25 -30
-13 127 40 -127 82 112 106 98
15 83 -26 -10 -127 114 -101 -127
86 47 127 -72 47 -46 96 -123
102 35 41 127 127 -127 10 -98
-113 -7 -3 -42 -83 40 57 -3
-99 -101 45 -86 119 -39 47 30
-39 93 87 -118 19 -78 -72 116
59 -113 -98 75 15 -113 107 -17
-14 79 51 -86 53 97 65 70
10 61 -56 -3 -102 90 -127 -94
86 55 119 -55 0 -37 81 -127
6 39 63 86 116 -109 19 -70
-78 -10 0 -55 46 34 80 3
-111 -32 20 -107 89 -70 49 58
-25 68 24 -80 7 -90 -35 83
68 -76 -70 45 -39 -127 112 -31
-31 73 47 -64 38 7 60 127
47 60 -18 -1 -95 79 -77 -112
67 56 119 -65 -48 -36 76 -78
31 40 57 76 85 -83 47 -36
-90 -2 3 -66 53 32 77 -6
-57 -6 2 -59 96 -28 38 64
18 68 -8 -58 -33 -68 -34 52
20 -74 -55 43 -31 -48 110 -2
17 49 46 -6 46 -2 77 85
37 72 -25 6 -56 75 -34 -42
61 51 58 -104 -38 -13 50 -60
13 19 28 46 29 -88 44 -16
00000000: 81f6 f6da 8d50 2ce6 8181 4494 7fc0 2bf8
00000010: d17f 7f81 199b 817f 4881 813a 389b 19e2
00000020: f37f 2881 5270 6a62 0f53 e6f6 8172 9b81
00000030: 562f 7fb8 2fd2 6085 6623 297f 7f81 0a9e
00000040: 8ff9 fdd6 ad28 39fd 9d9b 2daa 77d9 2f1e
00000050: d95d 578a 13b2 b874 3b8f 9e4b 0f8f 6bef
00000060: f24f 33aa 3561 4146 0a3d c8fd 9a5a 81a2
00000070: 5637 77c9 00db 5181 0627 3f56 7493 13ba
00000080: b2f6 00c9 2e22 5003 91e0 1495 59ba 313a
00000090: e744 18b0 07a6 dd53 44b4 ba2d d981 70e1
000000a0: e149 2fc0 2607 3c7f 2f3c eeff a14f b390
000000b0: 4338 77bf d0dc 4cb2 1f28 394c 55ad 2fdc
000000c0: a6fe 03be 3520 4dfa c7fa 02c5 60e4 2640
000000d0: 1244 f8c6 dfbc de34 14b6 c92b e1d0 6efe
000000e0: 1131 2efa 2efe 4d55 2548 e706 c84b ded6
000000f0: 3d33 3a98 daf3 32c4 0d13 1c2e 1da8 2cf0

tfl.pseudo_qconst7 i1 [64, 1, 1, 64]
9 42 -19 -50 18 -55 -41 27
-10 -31 -78 -70 -32 -31 42 -41
-18 59 9 26 9 18 -29 12
24 61 -23 -29 12 -30 -21 64
12 49 -21 -119 89 -96 4 -127
-39 -34 19 -100 9 -6 -22 -76
-27 33 -55 -17 -13 53 -73 -19
-120 -24 -71 -100 -65 71 31 116
49 4 45 -124 46 -11 -17 -32
47 -88 40 16 -99 -51 -31 -74
-4 72 61 -28 106 -74 10 -64
1 86 127 69 77 69 -7 -8
41 -104 -58 21 -39 47 37 6
-65 -41 78 -20 -47 63 17 20
-37 -17 -48 -76 52 -65 70 9
-85 -10 8 -49 25 -5 29 -58
-12 8 24 -58 75 15 30 -12
105 -71 -55 23 -12 -71 23 65
16 -21 -28 106 -27 -2 -114 33
4 -39 65 4 -17 -45 101 -38
48 93 10 9 -63 -32 79 127
57 43 -76 -8 -26 -59 27 80
-22 -23 114 68 110 -62 -17 2
62 6 27 7 -33 44 16 34
-17 20 -3 -87 57 -85 39 -7
-44 68 -35 -87 -3 -67 51 75
-123 47 -13 15 -90 36 -93 57
79 4 -92 -58 -40 -11 -13 54
-105 10 -18 -41 -4 -9 -73 -46
-9 120 -75 -4 -64 21 20 -20
44 65 -118 -9 13 -38 35 -72
-58 22 -65 58 3 18 127 7
00000000: 092a edce 12c9 d71b f6e1 b2ba e0e1 2ad7
00000010: ee3b 091a 0912 e30c 183d e9e3 0ce2 eb40
00000020: 0c31 eb89 59a0 0481 d9de 139c 09fa eab4
00000030: e521 c9ef f335 b7ed 88e8 b99c bf47 1f74
00000040: 3104 2d84 2ef5 efe0 2fa8 2810 9dcd e1b6
00000050: fc48 3de4 6ab6 0ac0 0156 7f45 4d45 f9f8
00000060: 2998 c615 d92f 2506 bfd7 4eec d13f 1114
00000070: dbef d0b4 34bf 4609 abf6 08cf 19fb 1dc6
00000080: f408 18c6 4b0f 1ef4 69b9 c917 f4b9 1741
00000090: 10eb e46a e5fe 8e21 04d9 4104 efd3 65da
000000a0: 305d 0a09 c1e0 4f7f 392b b4f8 e6c5 1b50
000000b0: eae9 7244 6ec2 ef02 3e06 1b07 df2c 1022
000000c0: ef14 fda9 39ab 27f9 d444 dda9 fdbd 334b
000000d0: 852f f30f a624 a339 4f04 a4c6 d8f5 f336
000000e0: 970a eed7 fcf7 b7d2 f778 b5fc c015 14ec
000000f0: 2c41 8af7 0dda 23b8 c616 bf3a 0312 7f07

tfl.pseudo_qconst9 i1 [1, 15, 1, 32]
100 -125 6 -127 127 -87 108 44
-48 -127 -127 -127 66 98 -89 89
4 127 17 -68 -72 42 127 -29
127 -49 -127 69 110 22 -125 -127
127 -127 -27 -124 109 -28 57 42
-23 -32 -83 -95 16 127 -39 95
-6 106 5 -43 -48 -21 108 -25
120 -35 -81 64 127 60 -73 -102
95 -111 -39 -64 43 -79 127 9
-15 -63 -68 -34 -3 40 56 127
34 50 18 -31 -64 12 112 4
91 -39 -85 89 115 17 -84 -62
114 -103 -26 -58 42 -49 117 37
-62 -57 -70 -63 44 47 41 118
39 79 -7 -43 -44 62 41 -2
95 -34 -12 -21 84 84 -53 -13
110 -46 17 -43 16 -25 70 4
-6 -60 -30 -64 -8 32 73 92
55 42 4 -16 -108 5 49 23
44 30 -37 39 40 127 55 -18
96 -14 -48 -23 12 20 70 38
-19 -67 -52 -41 -80 82 5 81
88 56 8 5 -95 1 42 47
48 12 26 -24 -6 55 75 37
33 53 -50 20 6 -8 36 -2
17 -28 -27 -22 -1 13 -77 57
65 -5 -32 -12 -71 -25 56 70
28 22 103 26 -22 54 105 25
-12 18 -21 1 -34 9 -35 27
-12 -31 -15 33 -46 60 -110 11
68 -15 -10 12 -74 -77 -4 64
-16 28 111 -85 -7 44 127 1
00000000: 6483 0681 7fa9 6c2c d081 8181 4262 a759
00000010: 047f 11bc b82a 7fe3 7fcf 8145 6e16 8381
00000020: 7f81 e584 6de4 392a e9e0 ada1 107f d95f
00000030: fa6a 05d5 d0eb 6ce7 78dd af40 7f3c b79a
00000040: 5f91 d9c0 2bb1 7f09 f1c1 bcde fd28 387f
00000050: 2232 12e1 c00c 7004 5bd9 ab59 7311 acc2
00000060: 7299 e6c6 2acf 7525 c2c7 bac1 2c2f 2976
00000070: 274f f9d5 d43e 29fe 5fde f4eb 5454 cbf3
00000080: 6ed2 11d5 10e7 4604 fac4 e2c0 f820 495c
00000090: 372a 04f0 9405 3117 2c1e db27 287f 37ee
000000a0: 60f2 d0e9 0c14 4626 edbd ccd7 b052 0551
000000b0: 5838 0805 a101 2a2f 300c 1ae8 fa37 4b25
000000c0: 2135 ce14 06f8 24fe 11e4 e5ea ff0d b339
000000d0: 41fb e0f4 b9e7 3846 1c16 671a ea36 6919
000000e0: f412 eb01 de09 dd1b f4e1 f121 d23c 920b
000000f0: 44f1 f60c b6b3 fc40 f01c 6fab f92c 7f01

tfl.pseudo_qconst11 i1 [1, 9, 1, 32]
92 76 34 32 127 90 95 -2
31 -76 76 21 12 -107 22 -28
2 -11 -22 -37 -30 -57 11 -65
-108 45 -64 25 28 -33 -23 3
-93 90 -89 110 106 57 68 110
-49 -127 85 96 18 13 35 41
9 37 45 -54 -1 -48 28 -75
-33 -40 1 32 -48 -10 22 -55
-46 99 -127 93 75 5 88 75
-71 -3 48 78 -25 -101 -17 3
8 35 3 -54 16 -52 97 -68
8 21 -33 16 -27 20 19 -66
70 127 100 127 11 81 127 127
-78 -112 45 122 46 -77 -14 31
31 26 30 -88 38 -73 105 -50
-53 -26 0 38 -36 35 65 -54
60 117 -30 119 56 54 95 86
43 -78 85 58 10 -19 -16 23
61 30 51 -64 127 -56 127 -46
-7 15 -40 -18 -39 -27 89 -108
111 34 -21 104 -17 49 59 -32
-73 -110 81 83 13 -102 40 42
60 51 92 -7 103 -127 89 18
10 -36 -44 4 -56 -9 63 -118
-107 34 66 124 36 73 43 54
-115 -94 22 24 -72 -126 48 67
39 95 127 -22 83 -103 84 18
-63 39 -69 52 -38 -30 106 -32
-127 -5 -52 54 108 118 -4 -40
-127 24 95 -86 -62 -127 18 40
116 67 118 -127 -35 -68 89 57
38 14 -90 71 -103 -47 50 -58
00000000: 5c4c 2220 7f5a 5ffe 1fb4 4c15 0c95 16e4
00000010: 02f5 eadb e2c7 0bbf 942d c019 1cdf e903
00000020: a35a a76e 6a39 446e cf81 5560 120d 2329
00000030: 0925 2dca ffd0 1cb5 dfd8 0120 d0f6 16c9
00000040: d263 815d 4b05 584b b9fd 304e e79b ef03
00000050: 0823 03ca 10cc 61bc 0815 df10 e514 13be
00000060: 467f 647f 0b51 7f7f b290 2d7a 2eb3 f21f
00000070: 1f1a 1ea8 26b7 69ce cbe6 0026 dc23 41ca
00000080: 3c75 e277 3836 5f56 2bb2 553a 0aed f017
00000090: 3d1e 33c0 7fc8 7fd2 f90f d8ee d9e5 5994
000000a0: 6f22 eb68 ef31 3be0 b792 5153 0d9a 282a
000000b0: 3c33 5cf9 6781 5912 0adc d404 c8f7 3f8a
000000c0: 9522 427c 2449 2b36 8da2 1618 b882 3043
000000d0: 275f 7fea 5399 5412 c127 bb34 dae2 6ae0
000000e0: 81fb cc36 6c76 fcd8 8118 5faa c281 1228
000000f0: 7443 7681 ddbc 5939 260e a647 99d1 32c6

tfl.pseudo_qconst13 i1 [64, 1, 1, 64]
5 100 -6 -79 48 33 -30 5
48 -25 127 -118 -87 -31 115 -91
-35 -84 65 -97 3 -87 -67 35
-63 -59 -101 -105 12 3 -103 65
85 -37 47 25 -15 10 25 -33
-96 100 -19 -7 30 11 -34 23
77 -12 63 59 20 10 113 21
-15 -26 -21 -71 -56 32 17 6
-18 67 -23 -76 26 -36 8 25
-80 60 -9 12 -25 -10 -88 -15
-47 5 41 -14 53 11 -15 -58
-93 63 -55 30 -44 30 -4 -4
127 -10 37 28 75 39 -110 50
-125 -58 -50 51 56 61 -87 32
74 78 63 -109 48 122 -81 -64
18 -123 -47 33 -29 -13 -90 34
39 62 -63 -19 50 20 19 27
58 40 -14 -89 -11 0 16 -47
-49 13 25 -9 -16 -15 -69 27
-23 -63 -10 -127 28 7 -74 17
13 21 63 6 50 25 11 -53
16 -11 34 41 -1 -26 34 -25
7 -3 -4 -10 -45 -10 57 -27
-4 27 16 27 4 38 64 47
-19 -15 21 71 -29 53 80 -73
-28 -38 -99 19 8 12 -4 -6
-15 -32 8 26 3 14 15 -81
26 -63 38 25 -2 30 21 -23
-2 -37 3 66 -22 -38 -34 35
-52 22 15 36 -35 13 -61 -127
-31 -69 14 32 -33 -74 41 -8
-34 44 20 -2 -16 -19 -5 8
00000000: 0564 fab1 3021 e205 30e7 7f8a a9e1 73a5
00000010: ddac 419f 03a9 bd23 c1c5 9b97 0c03 9941
00000020: 55db 2f19 f10a 19df a064 edf9 1e0b de17
00000030: 4df4 3f3b 140a 7115 f1e6 ebb9 c820 1106
00000040: ee43 e9b4 1adc 0819 b03c f70c e7f6 a8f1
00000050: d105 29f2 350b f1c6 a33f c91e d41e fcfc
00000060: 7ff6 251c 4b27 9232 83c6 ce33 383d a920
00000070: 4a4e 3f93 307a afc0 1285 d121 e3f3 a622
00000080: 273e c1ed 3214 131b 3a28 f2a7 f500 10d1
00000090: cf0d 19f7 f0f1 bb1b e9c1 f681 1c07 b611
000000a0: 0d15 3f06 3219 0bcb 10f5 2229 ffe6 22e7
000000b0: 07fd fcf6 d3f6 39e5 fc1b 101b 0426 402f
000000c0: edf1 1547 e335 50b7 e4da 9d13 080c fcfa
000000d0: f1e0 081a 030e 0faf 1ac1 2619 fe1e 15e9
000000e0: fedb 0342 eada de23 cc16 0f24 dd0d c381
000000f0: e1bb 0e20 dfb6 29f8 de2c 14fe f0ed fb08

tfl.pseudo_qconst15 i1 [1, 11, 1, 32]
5 78 -127 -126 120 34 74 -115
-22 48 -18 80 -61 127 -127 -110
100 -34 -121 127 102 31 -94 108
-51 -9 0 -127 -127 -7 -5 -30
-44 127 -24 -125 113 50 -3 -76
1 20 -11 71 38 115 -3 -63
17 -8 -127 118 127 56 -66 75
-21 70 -27 -90 -31 -44 -40 -19
51 37 -50 58 100 37 47 -64
-70 48 -78 78 -90 42 67 -48
51 70 -42 54 43 25 -74 127
-39 127 -39 -50 13 23 9 1
41 36 -44 15 41 -5 -9 -56
-27 16 36 81 -50 -48 90 -69
-3 21 -83 67 25 67 -56 72
-65 89 -31 -29 22 -52 53 -66
71 34 -20 127 127 33 67 -71
-19 -11 42 22 -127 -73 119 -78
-52 51 -114 70 39 80 -38 74
-63 42 15 -35 19 35 127 -28
84 -49 -6 71 17 -7 127 -66
-7 44 40 -107 -50 -14 33 -39
60 -41 6 32 -31 16 -82 86
-75 60 -16 24 33 2 126 -31
26 -62 -30 104 46 -9 125 -17
45 70 -32 -127 -84 11 73 -71
26 -39 -46 -12 -15 -87 -59 58
-104 -47 16 49 -11 -35 114 -6
-30 -42 -44 36 -58 -49 107 11
121 95 -112 -108 16 24 26 3
-6 -127 -15 -22 88 -117 -67 -11
-65 -90 -44 8 -4 56 50 -30
00000000: 054e 8182 7822 4a8d ea30 ee50 c37f 8192
00000010: 64de 877f 661f a26c cdf7 0081 81f9 fbe2
00000020: d47f e883 7132 fdb4 0114 f547 2673 fdc1
00000030: 11f8 8176 7f38 be4b eb46 e5a6 e1d4 d8ed
00000040: 3325 ce3a 6425 2fc0 ba30 b24e a62a 43d0
00000050: 3346 d636 2b19 b67f d97f d9ce 0d17 0901
00000060: 2924 d40f 29fb f7c8 e510 2451 ced0 5abb
00000070: fd15 ad43 1943 c848 bf59 e1e3 16cc 35be
00000080: 4722 ec7f 7f21 43b9 edf5 2a16 81b7 77b2
00000090: cc33 8e46 2750 da4a c12a 0fdd 1323 7fe4
000000a0: 54cf fa47 11f9 7fbe f92c 2895 cef2 21d9
000000b0: 3cd7 0620 e110 ae56 b53c f018 2102 7ee1
000000c0: 1ac2 e268 2ef7 7def 2d46 e081 ac0b 49b9
000000d0: 1ad9 d2f4 f1a9 c53a 98d1 1031 f5dd 72fa
000000e0: e2d6 d424 c6cf 6b0b 795f 9094 1018 1a03
000000f0: fa81 f1ea 588b bdf5 bfa6 d408 fc38 32e2

tfl.pseudo_qconst17 i1 [1, 7, 1, 32]
13 -28 19 63 16 68 -37 -82
90 127 99 -32 -111 -38 16 108
127 -39 19 -127 -127 111 70 -25
-61 -127 -49 -92 -5 127 127 8
17 -18 -127 91 35 123 -41 -46
103 4 75 -26 -110 -2 60 118
65 9 -24 -56 81 118 73 -75
-23 -127 -23 24 -84 90 75 -67
68 -77 -72 51 -3 113 -36 8
127 -53 57 99 -54 52 96 44
38 -69 25 -62 -16 50 67 -19
-127 -85 -2 72 -127 86 23 50
120 -127 -74 43 -15 -65 15 13
99 -59 -68 127 -41 127 53 109
60 -127 -1 -121 -85 85 95 -113
-70 -7 124 127 9 61 -64 74
27 -71 62 110 -57 -127 -21 92
109 -87 -52 84 127 108 59 90
-104 -123 25 -85 4 115 -50 -127
-81 -29 99 114 28 51 -40 -44
-60 16 118 127 -55 -11 -71 127
91 -32 -41 92 113 59 -38 93
-21 -100 -35 -68 -13 127 -104 -63
-19 14 67 13 7 -26 -42 -36
-127 4 43 100 -127 -62 -127 127
119 56 -127 37 75 69 -127 127
127 -96 -127 -63 -24 68 -127 16
115 42 127 66 97 121 -78 -127
00000000: 0de4 133f 1044 dbae 5a7f 63e0 91da 106c
00000010: 7fd9 1381 816f 46e7 c381 cfa4 fb7f 7f08
00000020: 11ee 815b 237b d7d2 6704 4be6 92fe 3c76
00000030: 4109 e8c8 5176 49b5 e981 e918 ac5a 4bbd
00000040: 44b3 b833 fd71 dc08 7fcb 3963 ca34 602c
00000050: 26bb 19c2 f032 43ed 81ab fe48 8156 1732
00000060: 7881 b62b f1bf 0f0d 63c5 bc7f d77f 356d
00000070: 3c81 ff87 ab55 5f8f baf9 7c7f 093d c04a
00000080: 1bb9 3e6e c781 eb5c 6da9 cc54 7f6c 3b5a
00000090: 9885 19ab 0473 ce81 afe3 6372 1c33 d8d4
000000a0: c410 767f c9f5 b97f 5be0 d75c 713b da5d
000000b0: eb9c ddbc f37f 98c1 ed0e 430d 07e6 d6dc
000000c0: 8104 2b64 81c2 817f 7738 8125 4b45 817f
000000d0: 7fa0 81c1 e844 8110 732a 7f42 6179 b281

tfl.pseudo_qconst19 i1 [64, 1, 1, 32]
44 -8 35 -57 -127 25 -36 30
-44 -69 -27 -58 79 -53 9 -45
-7 26 -25 6 26 -17 -20 28
-5 9 47 40 -5 -3 -11 10
-20 -24 -36 71 -65 68 -104 23
112 127 -13 -56 71 17 29 -36
42 -46 81 -54 11 -36 -16 -89
21 -47 73 -85 -77 -37 36 24
-3 -38 3 -11 -21 18 0 78
63 30 31 78 76 -79 -89 -12
22 -19 -44 106 7 45 -11 4
22 9 -90 -28 -33 -127 -88 -41
-5 52 -7 -2 -15 0 30 -84
-58 127 -93 -71 -7 21 -7 30
26 3 -35 33 -22 -27 -49 60
33 18 -62 47 33 49 -10 -54
2 43 -46 25 -17 26 -3 64
-72 44 21 -49 1 -37 61 12
77 -26 19 14 -47 4 -75 18
-16 45 58 -45 59 9 -127 -44
-19 -55 -74 -21 24 33 -80 -127
102 19 -21 20 -63 -63 24 -56
47 49 -19 -15 -30 91 -53 -45
-13 -3 91 40 31 9 -67 -26
-89 -46 5 -28 112 2 -48 10
34 57 -41 -6 -48 -44 68 48
43 9 25 86 -9 -55 -21 -32
-13 41 -25 -127 19 -42 -53 -2
-61 -34 -32 -67 58 -127 10 -39
-44 39 -60 -45 -71 -25 -68 -16
41 84 -30 43 -21 -2 29 14
-114 -63 69 3 53 66 -48 -49
00000000: 2cf8 23c7 8119 dc1e d4bb e5c6 4fcb 09d3
00000010: f91a e706 1aef ec1c fb09 2f28 fbfd f50a
00000020: ece8 dc47 bf44 9817 707f f3c8 4711 1ddc
00000030: 2ad2 51ca 0bdc f0a7 15d1 49ab b3db 2418
00000040: fdda 03f5 eb12 004e 3f1e 1f4e 4cb1 a7f4
00000050: 16ed d46a 072d f504 1609 a6e4 df81 a8d7
00000060: fb34 f9fe f100 1eac c67f a3b9 f915 f91e
00000070: 1a03 dd21 eae5 cf3c 2112 c22f 2131 f6ca
00000080: 022b d219 ef1a fd40 b82c 15cf 01db 3d0c
00000090: 4de6 130e d104 b512 f02d 3ad3 3b09 81d4
000000a0: edc9 b6eb 1821 b081 6613 eb14 c1c1 18c8
000000b0: 2f31 edf1 e25b cbd3 f3fd 5b28 1f09 bde6
000000c0: a7d2 05e4 7002 d00a 2239 d7fa d0d4 4430
000000d0: 2b09 1956 f7c9 ebe0 f329 e781 13d6 cbfe
000000e0: c3de e0bd 3a81 0ad9 d427 c4d3 b9e7 bcf0
000000f0: 2954 e22b ebfe 1d0e 8ec1 4503 3542 d0cf

tfl.pseudo_qconst21 i1 [1, 5, 1, 32]
83 15 127 67 -127 13 127 -127
39 -37 -127 -114 83 -127 127 -127
-94 -3 -57 -127 -110 64 -127 127
86 54 -17 80 -109 -31 111 127
-43 104 69 97 -57 5 -85 -88
-42 -79 -32 -35 127 -75 76 -96
27 -31 -4 -22 -127 127 -84 96
34 24 -25 10 -11 -50 127 95
80 127 40 127 9 127 -85 48
-127 -57 -58 51 51 60 114 -62
101 7 -22 45 25 -44 -8 70
92 127 -119 0 -51 -127 0 83
127 20 52 17 81 40 -86 74
-94 33 -81 127 -11 -1 -73 -38
127 -88 96 32 -70 76 -48 54
42 44 -127 -51 -90 -62 -87 104
125 -39 -14 67 12 69 -56 109
47 127 -49 98 -15 96 -67 -37
113 -127 127 89 117 124 -79 11
127 69 -72 -127 -127 58 -114 121
00000000: 530f 7f43 810d 7f81 27db 818e 5381 7f81
00000010: a2fd c781 9240 817f 5636 ef50 93e1 6f7f
00000020: d568 4561 c705 aba8 d6b1 e0dd 7fb5 4ca0
00000030: 1be1 fcea 817f ac60 2218 e70a f5ce 7f5f
00000040: 507f 287f 097f ab30 81c7 c633 333c 72c2
00000050: 6507 ea2d 19d4 f846 5c7f 8900 cd81 0053
00000060: 7f14 3411 5128 aa4a a221 af7f f5ff b7da
00000070: 7fa8 6020 ba4c d036 2a2c 81cd a6c2 a968
00000080: 7dd9 f243 0c45 c86d 2f7f cf62 f160 bddb
00000090: 7181 7f59 757c b10b 7f45 b881 813a 8e79

tfl.pseudo_qconst23 i1 [32, 5, 1, 40]
-103 -65 -25 4 11 -12 -6 23
-23 25 21 20 -7 21 5 -13
0 2 3 -27 -17 -21 -15 -14
-30 5 -2 23 0 33 38 49
29 5 19 10 16 25 -8 12
-95 -59 -12 20 -13 -18 -2 13
-8 12 0 40 12 -11 -25 2
0 0 -11 -10 -29 -11 -10 -18
-57 -51 -14 34 11 38 32 32
40 -1 27 33 14 15 -10 35
-120 -54 24 8 2 -31 -16 39
-19 30 3 11 -21 -1 -21 19
-1 -19 -16 -17 -28 9 -24 -2
-56 -24 -19 21 -8 3 12 54
49 4 33 7 27 23 2 27
-127 -78 -11 -12 -12 -16 -2 16
13 24 -4 13 -26 -12 -25 10
8 9 -11 -15 2 5 -19 -3
-61 -53 -14 7 19 22 23 26
24 35 -1 11 -2 20 23 48
-122 -54 13 3 14 -11 -28 32
9 32 14 22 -7 17 13 21
-7 -5 -16 -4 8 18 -29 -7
-32 -28 -31 21 -3 4 20 44
28 3 13 3 -16 7 0 43
40 32 104 37 45 51 15 53
9 -91 -40 -46 19 -46 37 21
56 31 61 8 16 -63 10 23
-8 -6 -37 -26 -46 1 -13 -57
-39 -11 32 10 41 -48 -12 -8
41 1 91 -15 -15 -6 7 -25
-6 -26 -49 -36 16 -7 -37 -6
00000000: 99bf e704 0bf4 fa17 e919 1514 f915 05f3
00000010: 0002 03e5 efeb f1f2 e205 fe17 0021 2631
00000020: 1d05 130a 1019 f80c a1c5 f414 f3ee fe0d
00000030: f80c 0028 0cf5 e702 0000 f5f6 e3f5 f6ee
00000040: c7cd f222 0b26 2020 28ff 1b21 0e0f f623
00000050: 88ca 1808 02e1 f027 ed1e 030b ebff eb13
00000060: ffed f0ef e409 e8fe c8e8 ed15 f803 0c36
00000070: 3104 2107 1b17 021b 81b2 f5f4 f4f0 fe10
00000080: 0d18 fc0d e6f4 e70a 0809 f5f1 0205 edfd
00000090: c3cb f207 1316 171a 1823 ff0b fe14 1730
000000a0: 86ca 0d03 0ef5 e420 0920 0e16 f911 0d15
000000b0: f9fb f0fc 0812 e3f9 e0e4 e115 fd04 142c
000000c0: 1c03 0d03 f007 002b 2820 6825 2d33 0f35
000000d0: 09a5 d8d2 13d2 2515 381f 3d08 10c1 0a17
000000e0: f8fa dbe6 d201 f3c7 d9f5 200a 29d0 f4f8
000000f0: 2901 5bf1 f1fa 07e7 fae6 cfdc 10f9 dbfa

tfl.pseudo_qconst24 i1 [1, 14, 1, 64] scale=0.045354508 zero_point=-128
0.0 0.0 0.0 0.0 0.0 0.0 0.0 0.0
0.0 0.0 0.0 0.0 0.0 0.0 0.0 0.0
0.0 0.0 0.0 0.0 0.0 0.0 0.0 0.0
0.0 0.0 0.0 0.0 0.0 0.0 0.0 0.0
0.0 0.0 0.0 0.0 0.0 0.0 0.0 0.0
0.0 0.0 0.0 0.0 0.0 0.0 0.0 0.0
0.0 0.0 0.0 0.0 0.0 0.0 0.0 0.0
0.0 0.0 0.0 0.0 0.0 0.0 0.0 0.0
0.0 0.0 0.0 0.0 0.0 0.0 0.0 0.0
0.0 0.0 0.0 0.0 0.0 0.0 0.0 0.0
0.0 0.0 0.0 0.0 0.0 0.0 0.0 0.0
0.0 0.0 0.0 0.0 0.0 0.0 0.0 0.0
0.0 0.0 0.0 0.0 0.0 0.0 0.0 0.0
0.0 0.0 0.0 0.0 0.0 0.0 0.0 0.0
0.0 0.0 0.0 0.0 0.0 0.0 0.0 0.0
0.0 0.0 0.0 0.0 0.0 0.0 0.0 0.0
0.0 0.0 0.0 0.0 0.0 0.0 0.0 0.0
0.0 0.0 0.0 0.0 0.0 0.0 0.0 0.0
0.0 0.0 0.0 0.0 0.0 0.0 0.0 0.0
0.0 0.0 0.0 0.0 0.0 0.0 0.0 0.0
0.0 0.0 0.0 0.0 0.0 0.0 0.0 0.0
0.0 0.0 0.0 0.0 0.0 0.0 0.0 0.0
0.0 0.0 0.0 0.0 0.0 0.0 0.0 0.0
0.0 0.0 0.0 0.0 0.0 0.0 0.0 0.0
0.0 0.0 0.0 0.0 0.0 0.0 0.0 0.0
0.0 0.0 0.0 0.0 0.0 0.0 0.0 0.0
0.0 0.0 0.0 0.0 0.0 0.0 0.0 0.0
0.0 0.0 0.0 0.0 0.0 0.0 0.0 0.0
0.0 0.0 0.0 0.0 0.0 0.0 0.0 0.0
0.0 0.0 0.0 0.0 0.0 0.0 0.0 0.0
0.0 0.0 0.0 0.0 0.0 0.0 0.0 0.0
0.0 0.0 0.0 0.0 0.0 0.0 0.0 0.0
00000000: 8080 8080 8080 8080 8080 8080 8080 8080
00000010: 8080 8080 8080 8080 8080 8080 8080 8080
00000020: 8080 8080 8080 8080 8080 8080 8080 8080
00000030: 8080 8080 8080 8080 8080 8080 8080 8080
00000040: 8080 8080 8080 8080 8080 8080 8080 8080
00000050: 8080 8080 8080 8080 8080 8080 8080 8080
00000060: 8080 8080 8080 8080 8080 8080 8080 8080
00000070: 8080 8080 8080 8080 8080 8080 8080 8080
00000080: 8080 8080 8080 8080 8080 8080 8080 8080
00000090: 8080 8080 8080 8080 8080 8080 8080 8080
000000a0: 8080 8080 8080 8080 8080 8080 8080 8080
000000b0: 8080 8080 8080 8080 8080 8080 8080 8080
000000c0: 8080 8080 8080 8080 8080 8080 8080 8080
000000d0: 8080 8080 8080 8080 8080 8080 8080 8080
000000e0: 8080 8080 8080 8080 8080 8080 8080 8080
000000f0: 8080 8080 8080 8080 8080 8080 8080 8080

tfl.pseudo_qconst25 i1 [1, 10, 1, 64] scale=0.03934533 zero_point=-128
0.0 0.0 0.0 0.0 0.0 0.0 0.0 0.0
0.0 0.0 0.0 0.0 0.0 0.0 0.0 0.0
0.0 0.0 0.0 0.0 0.0 0.0 0.0 0.0
0.0 0.0 0.0 0.0 0.0 0.0 0.0 0.0
0.0 0.0 0.0 0.0 0.0 0.0 0.0 0.0
0.0 0.0 0.0 0.0 0.0 0.0 0.0 0.0
0.0 0.0 0.0 0.0 0.0 0.0 0.0 0.0
0.0 0.0 0.0 0.0 0.0 0.0 0.0 0.0
0.0 0.0 0.0 0.0 0.0 0.0 0.0 0.0
0.0 0.0 0.0 0.0 0.0 0.0 0.0 0.0
0.0 0.0 0.0 0.0 0.0 0.0 0.0 0.0
0.0 0.0 0.0 0.0 0.0 0.0 0.0 0.0
0.0 0.0 0.0 0.0 0.0 0.0 0.0 0.0
0.0 0.0 0.0 0.0 0.0 0.0 0.0 0.0
0.0 0.0 0.0 0.0 0.0 0.0 0.0 0.0
0.0 0.0 0.0 0.0 0.0 0.0 0.0 0.0
0.0 0.0 0.0 0.0 0.0 0.0 0.0 0.0
0.0 0.0 0.0 0.0 0.0 0.0 0.0 0.0
0.0 0.0 0.0 0.0 0.0 0.0 0.0 0.0
0.0 0.0 0.0 0.0 0.0 0.0 0.0 0.0
0.0 0.0 0.0 0.0 0.0 0.0 0.0 0.0
0.0 0.0 0.0 0.0 0.0 0.0 0.0 0.0
0.0 0.0 0.0 0.0 0.0 0.0 0.0 0.0
0.0 0.0 0.0 0.0 0.0 0.0 0.0 0.0
0.0 0.0 0.0 0.0 0.0 0.0 0.0 0.0
0.0 0.0 0.0 0.0 0.0 0.0 0.0 0.0
0.0 0.0 0.0 0.0 0.0 0.0 0.0 0.0
0.0 0.0 0.0 0.0 0.0 0.0 0.0 0.0
0.0 0.0 0.0 0.0 0.0 0.0 0.0 0.0
0.0 0.0 0.0 0.0 0.0 0.0 0.0 0.0
0.0 0.0 0.0 0.0 0.0 0.0 0.0 0.0
0.0 0.0 0.0 0.0 0.0 0.0 0.0 0.0
00000000: 8080 8080 8080 8080 8080 8080 8080 8080
00000010: 8080 8080 8080 8080 8080 8080 8080 8080
00000020: 8080 8080 8080 8080 8080 8080 8080 8080
00000030: 8080 8080 8080 8080 8080 8080 8080 8080
00000040: 8080 8080 8080 8080 8080 8080 8080 8080
00000050: 8080 8080 8080 8080 8080 8080 8080 8080
00000060: 8080 8080 8080 8080 8080 8080 8080 8080
00000070: 8080 8080 8080 8080 8080 8080 8080 8080
00000080: 8080 8080 8080 8080 8080 8080 8080 8080
00000090: 8080 8080 8080 8080 8080 8080 8080 8080
000000a0: 8080 8080 8080 8080 8080 8080 8080 8080
000000b0: 8080 8080 8080 8080 8080 8080 8080 8080
000000c0: 8080 8080 8080 8080 8080 8080 8080 8080
000000d0: 8080 8080 8080 8080 8080 8080 8080 8080
000000e0: 8080 8080 8080 8080 8080 8080 8080 8080
000000f0: 8080 8080 8080 8080 8080 8080 8080 8080

tfl.pseudo_qconst26 i1 [1, 4, 1, 32] scale=1.3238618 zero_point=-128
0.0 0.0 0.0 0.0 0.0 0.0 0.0 0.0
0.0 0.0 0.0 0.0 0.0 0.0 0.0 0.0
0.0 0.0 0.0 0.0 0.0 0.0 0.0 0.0
0.0 0.0 0.0 0.0 0.0 0.0 0.0 0.0
0.0 0.0 0.0 0.0 0.0 0.0 0.0 0.0
0.0 0.0 0.0 0.0 0.0 0.0 0.0 0.0
0.0 0.0 0.0 0.0 0.0 0.0 0.0 0.0
0.0 0.0 0.0 0.0 0.0 0.0 0.0 0.0
0.0 0.0 0.0 0.0 0.0 0.0 0.0 0.0
0.0 0.0 0.0 0.0 0.0 0.0 0.0 0.0
0.0 0.0 0.0 0.0 0.0 0.0 0.0 0.0
0.0 0.0 0.0 0.0 0.0 0.0 0.0 0.0
0.0 0.0 0.0 0.0 0.0 0.0 0.0 0.0
0.0 0.0 0.0 0.0 0.0 0.0 0.0 0.0
0.0 0.0 0.0 0.0 0.0 0.0 0.0 0.0
0.0 0.0 0.0 0.0 0.0 0.0 0.0 0.0
00000000: 8080 8080 8080 8080 8080 8080 8080 8080
00000010: 8080 8080 8080 8080 8080 8080 8080 8080
00000020: 8080 8080 8080 8080 8080 8080 8080 8080
00000030: 8080 8080 8080 8080 8080 8080 8080 8080
00000040: 8080 8080 8080 8080 8080 8080 8080 8080
00000050: 8080 8080 8080 8080 8080 8080 8080 8080
00000060: 8080 8080 8080 8080 8080 8080 8080 8080
00000070: 8080 8080 8080 8080 8080 8080 8080 8080

tfl.pseudo_qconst27 i1 [1, 3, 1, 40] scale=0.101960786 zero_point=-128
0.0 0.0 0.0 0.0 0.0 0.0 0.0 0.0
0.0 0.0 0.0 0.0 0.0 0.0 0.0 0.0
0.0 0.0 0.0 0.0 0.0 0.0 0.0 0.0
0.0 0.0 0.0 0.0 0.0 0.0 0.0 0.0
0.0 0.0 0.0 0.0 0.0 0.0 0.0 0.0
0.0 0.0 0.0 0.0 0.0 0.0 0.0 0.0
0.0 0.0 0.0 0.0 0.0 0.0 0.0 0.0
0.0 0.0 0.0 0.0 0.0 0.0 0.0 0.0
0.0 0.0 0.0 0.0 0.0 0.0 0.0 0.0
0.0 0.0 0.0 0.0 0.0 0.0 0.0 0.0
0.0 0.0 0.0 0.0 0.0 0.0 0.0 0.0
0.0 0.0 0.0 0.0 0.0 0.0 0.0 0.0
0.0 0.0 0.0 0.0 0.0 0.0 0.0 0.0
0.0 0.0 0.0 0.0 0.0 0.0 0.0 0.0
0.0 0.0 0.0 0.0 0.0 0.0 0.0 0.0
00000000: 8080 8080 8080 8080 8080 8080 8080 8080
00000010: 8080 8080 8080 8080 8080 8080 8080 8080
00000020: 8080 8080 8080 8080 8080 8080 8080 8080
00000030: 8080 8080 8080 8080 8080 8080 8080 8080
00000040: 8080 8080 8080 8080 8080 8080 8080 8080
00000050: 8080 8080 8080 8080 8080 8080 8080 8080
00000060: 8080 8080 8080 8080 8080 8080 8080 8080
00000070: 8080 8080 8080 8080

tfl.pseudo_qconst28 i1 [1, 36, 1, 64] scale=0.02962736 zero_point=-128
0.0 0.0 0.0 0.0 0.0 0.0 0.0 0.0
0.0 0.0 0.0 0.0 0.0 0.0 0.0 0.0
0.0 0.0 0.0 0.0 0.0 0.0 0.0 0.0
0.0 0.0 0.0 0.0 0.0 0.0 0.0 0.0
0.0 0.0 0.0 0.0 0.0 0.0 0.0 0.0
0.0 0.0 0.0 0.0 0.0 0.0 0.0 0.0
0.0 0.0 0.0 0.0 0.0 0.0 0.0 0.0
0.0 0.0 0.0 0.0 0.0 0.0 0.0 0.0
0.0 0.0 0.0 0.0 0.0 0.0 0.0 0.0
0.0 0.0 0.0 0.0 0.0 0.0 0.0 0.0
0.0 0.0 0.0 0.0 0.0 0.0 0.0 0.0
0.0 0.0 0.0 0.0 0.0 0.0 0.0 0.0
0.0 0.0 0.0 0.0 0.0 0.0 0.0 0.0
0.0 0.0 0.0 0.0 0.0 0.0 0.0 0.0
0.0 0.0 0.0 0.0 0.0 0.0 0.0 0.0
0.0 0.0 0.0 0.0 0.0 0.0 0.0 0.0
0.0 0.0 0.0 0.0 0.0 0.0 0.0 0.0
0.0 0.0 0.0 0.0 0.0 0.0 0.0 0.0
0.0 0.0 0.0 0.0 0.0 0.0 0.0 0.0
0.0 0.0 0.0 0.0 0.0 0.0 0.0 0.0
0.0 0.0 0.0 0.0 0.0 0.0 0.0 0.0
0.0 0.0 0.0 0.0 0.0 0.0 0.0 0.0
0.0 0.0 0.0 0.0 0.0 0.0 0.0 0.0
0.0 0.0 0.0 0.0 0.0 0.0 0.0 0.0
0.0 0.0 0.0 0.0 0.0 0.0 0.0 0.0
0.0 0.0 0.0 0.0 0.0 0.0 0.0 0.0
0.0 0.0 0.0 0.0 0.0 0.0 0.0 0.0
0.0 0.0 0.0 0.0 0.0 0.0 0.0 0.0
0.0 0.0 0.0 0.0 0.0 0.0 0.0 0.0
0.0 0.0 0.0 0.0 0.0 0.0 0.0 0.0
0.0 0.0 0.0 0.0 0.0 0.0 0.0 0.0
0.0 0.0 0.0 0.0 0.0 0.0 0.0 0.0
00000000: 8080 8080 8080 8080 8080 8080 8080 8080
00000010: 8080 8080 8080 8080 8080 8080 8080 8080
00000020: 8080 8080 8080 8080 8080 8080 8080 8080
00000030: 8080 8080 8080 8080 8080 8080 8080 8080
00000040: 8080 8080 8080 8080 8080 8080 8080 8080
00000050: 8080 8080 8080 8080 8080 8080 8080 8080
00000060: 8080 8080 8080 8080 8080 8080 8080 8080
00000070: 8080 8080 8080 8080 8080 8080 8080 8080
00000080: 8080 8080 8080 8080 8080 8080 8080 8080
00000090: 8080 8080 8080 8080 8080 8080 8080 8080
000000a0: 8080 8080 8080 8080 8080 8080 8080 8080
000000b0: 8080 8080 8080 8080 8080 8080 8080 8080
000000c0: 8080 8080 8080 8080 8080 8080 8080 8080
000000d0: 8080 8080 8080 8080 8080 8080 8080 8080
000000e0: 8080 8080 8080 8080 8080 8080 8080 8080
000000f0: 8080 8080 8080 8080 8080 8080 8080 8080

tfl.pseudo_qconst29 i1 [1, 22, 1, 64] scale=0.04333329 zero_point=-128
0.0 0.0 0.0 0.0 0.0 0.0 0.0 0.0
0.0 0.0 0.0 0.0 0.0 0.0 0.0 0.0
0.0 0.0 0.0 0.0 0.0 0.0 0.0 0.0
0.0 0.0 0.0 0.0 0.0 0.0 0.0 0.0
0.0 0.0 0.0 0.0 0.0 0.0 0.0 0.0
0.0 0.0 0.0 0.0 0.0 0.0 0.0 0.0
0.0 0.0 0.0 0.0 0.0 0.0 0.0 0.0
0.0 0.0 0.0 0.0 0.0 0.0 0.0 0.0
0.0 0.0 0.0 0.0 0.0 0.0 0.0 0.0
0.0 0.0 0.0 0.0 0.0 0.0 0.0 0.0
0.0 0.0 0.0 0.0 0.0 0.0 0.0 0.0
0.0 0.0 0.0 0.0 0.0 0.0 0.0 0.0
0.0 0.0 0.0 0.0 0.0 0.0 0.0 0.0
0.0 0.0 0.0 0.0 0.0 0.0 0.0 0.0
0.0 0.0 0.0 0.0 0.0 0.0 0.0 0.0
0.0 0.0 0.0 0.0 0.0 0.0 0.0 0.0
0.0 0.0 0.0 0.0 0.0 0.0 0.0 0.0
0.0 0.0 0.0 0.0 0.0 0.0 0.0 0.0
0.0 0.0 0.0 0.0 0.0 0.0 0.0 0.0
0.0 0.0 0.0 0.0 0.0 0.0 0.0 0.0
0.0 0.0 0.0 0.0 0.0 0.0 0.0 0.0
0.0 0.0 0.0 0.0 0.0 0.0 0.0 0.0
0.0 0.0 0.0 0.0 0.0 0.0 0.0 0.0
0.0 0.0 0.0 0.0 0.0 0.0 0.0 0.0
0.0 0.0 0.0 0.0 0.0 0.0 0.0 0.0
0.0 0.0 0.0 0.0 0.0 0.0 0.0 0.0
0.0 0.0 0.0 0.0 0.0 0.0 0.0 0.0
0.0 0.0 0.0 0.0 0.0 0.0 0.0 0.0
0.0 0.0 0.0 0.0 0.0 0.0 0.0 0.0
0.0 0.0 0.0 0.0 0.0 0.0 0.0 0.0
0.0 0.0 0.0 0.0 0.0 0.0 0.0 0.0
0.0 0.0 0.0 0.0 0.0 0.0 0.0 0.0
00000000: 8080 8080 8080 8080 8080 8080 8080 8080
00000010: 8080 8080 8080 8080 8080 8080 8080 8080
00000020: 8080 8080 8080 8080 8080 8080 8080 8080
00000030: 8080 8080 8080 8080 8080 8080 8080 8080
00000040: 8080 8080 8080 8080 8080 8080 8080 8080
00000050: 8080 8080 8080 8080 8080 8080 8080 8080
00000060: 8080 8080 8080 8080 8080 8080 8080 8080
00000070: 8080 8080 8080 8080 8080 8080 8080 8080
00000080: 8080 8080 8080 8080 8080 8080 8080 8080
00000090: 8080 8080 8080 8080 8080 8080 8080 8080
000000a0: 8080 8080 8080 8080 8080 8080 8080 8080
000000b0: 8080 8080 8080 8080 8080 8080 8080 8080
000000c0: 8080 8080 8080 8080 8080 8080 8080 8080
000000d0: 8080 8080 8080 8080 8080 8080 8080 8080
000000e0: 8080 8080 8080 8080 8080 8080 8080 8080
000000f0: 8080 8080 8080 8080 8080 8080 8080 8080
