voice_assistant/microwakeword/models/hey_do.tflite (tflite, 63536 bytes, 18 tensors)

tfl.pseudo_qconst1 i1 [1, 2368] scale=0.0075588017 zero_point=0
-0.09826442 -0.09070562 -0.32502848 0.06802922 -0.14361723 -0.03779401 -0.20408764 -0.015117603
-0.15873483 0.09070562 -0.09070562 -0.07558802 0.0 -0.015117603 0.030235207 -0.060470413
-0.09070562 -0.09070562 -0.21164645 -0.06802922 0.11338203 0.022676405 -0.06802922 -0.16629364
-0.12094083 -0.13605843 -0.11338203 -0.11338203 -0.07558802 -0.07558802 -0.03779401 -0.23432285
0.12094083 -0.022676405 -0.25699925 -0.12094083 -0.0075588017 0.11338203 -0.13605843 0.030235207
-0.09826442 0.030235207 -0.0075588017 -0.25699925 -0.09826442 -0.14361723 -0.052911613 -0.060470413
-0.18897004 -0.14361723 -0.07558802 -0.052911613 -0.07558802 -0.030235207 -0.105823226 0.105823226
-0.07558802 -0.15873483 0.030235207 -0.08314682 -0.15873483 0.06802922 0.030235207 -0.022676405
-0.060470413 -0.060470413 -0.09070562 0.12849963 -0.07558802 -0.060470413 -0.16629364 -0.12094083
-0.11338203 0.015117603 -0.015117603 0.060470413 -0.060470413 0.0075588017 0.09070562 -0.030235207
-0.030235207 -0.04535281 -0.06802922 -0.052911613 0.03779401 0.022676405 -0.07558802 -0.15117604
-0.09070562 -0.03779401 -0.015117603 -0.015117603 -0.06802922 -0.09070562 -0.04535281 -0.09070562
0.015117603 -0.022676405 -0.15873483 -0.18141124 0.052911613 0.12094083 -0.14361723 -0.015117603
-0.030235207 -0.04535281 0.09070562 -0.18141124 0.0 -0.08314682 -0.09826442 -0.052911613
-0.13605843 -0.060470413 0.030235207 -0.03779401 -0.09070562 -0.04535281 -0.09826442 0.052911613
0.015117603 -0.015117603 0.0 0.0075588017 -0.11338203 0.09826442 0.022676405 0.0075588017
-0.030235207 0.022676405 -0.06802922 0.09826442 -0.04535281 0.022676405 -0.06802922 -0.08314682
-0.17385244 0.08314682 0.0 0.030235207 0.052911613 -0.06802922 -0.015117603 -0.0075588017
0.06802922 -0.07558802 -0.03779401 0.0075588017 0.052911613 0.030235207 -0.08314682 -0.09826442
-0.060470413 -0.030235207 0.052911613 -0.030235207 -0.04535281 0.015117603 0.0 -0.060470413
0.0075588017 -0.06802922 -0.21920525 -0.12094083 0.04535281 -0.03779401 -0.07558802 0.015117603
0.03779401 -0.0075588017 0.0075588017 -0.09826442 -0.060470413 -0.030235207 -0.0075588017 0.0
-0.14361723 -0.03779401 0.03779401 -0.04535281 0.04535281 0.030235207 -0.03779401 0.0
0.0 0.015117603 -0.052911613 -0.022676405 -0.12094083 0.08314682 -0.030235207 0.015117603
0.015117603 0.060470413 -0.07558802 0.11338203 -0.0075588017 0.03779401 -0.06802922 -0.11338203
-0.13605843 0.12849963 0.09826442 -0.03779401 0.0 -0.0075588017 -0.04535281 0.04535281
-0.030235207 -0.022676405 -0.04535281 0.052911613 -0.052911613 0.04535281 0.04535281 -0.060470413
-0.06802922 -0.08314682 0.052911613 -0.052911613 -0.07558802 0.0 -0.04535281 -0.03779401
-0.0075588017 -0.052911613 -0.16629364 -0.060470413 -0.03779401 -0.12849963 -0.105823226 -0.022676405
-0.03779401 -0.022676405 0.04535281 -0.022676405 -0.022676405 0.0 0.04535281 0.030235207
0.030235207 0.052911613 -0.04535281 0.015117603 0.060470413 0.03779401 -0.0075588017 -0.015117603
-0.022676405 -0.09070562 -0.030235207 -0.030235207 -0.04535281 -0.04535281 -0.06802922 0.0
00000000: f3f4 d509 edfb e5fe eb0c f4f6 00fe 04f8
00000010: f4f4 e4f7 0f03 f7ea f0ee f1f1 f6f6 fbe1
00000020: 10fd def0 ff0f ee04 f304 ffde f3ed f9f8
00000030: e7ed f6f9 f6fc f20e f6eb 04f5 eb09 04fd
00000040: f8f8 f411 f6f8 eaf0 f102 fe08 f801 0cfc
00000050: fcfa f7f9 0503 f6ec f4fb fefe f7f4 faf4
00000060: 02fd ebe8 0710 edfe fcfa 0ce8 00f5 f3f9
00000070: eef8 04fb f4fa f307 02fe 0001 f10d 0301
00000080: fc03 f70d fa03 f7f5 e90b 0004 07f7 feff
00000090: 09f6 fb01 0704 f5f3 f8fc 07fc fa02 00f8
000000a0: 01f7 e3f0 06fb f602 05ff 01f3 f8fc ff00
000000b0: edfb 05fa 0604 fb00 0002 f9fd f00b fc02
000000c0: 0208 f60f ff05 f7f1 ee11 0dfb 00ff fa06
000000d0: fcfd fa07 f906 06f8 f7f5 07f9 f600 fafb
000000e0: fff9 eaf8 fbef f2fd fbfd 06fd fd00 0604
000000f0: 0407 fa02 0805 fffe fdf4 fcfc fafa f700

tfl.pseudo_qconst3 i1 [64, 1, 1, 64]
21 40 1 43 -77 12 26 1
-37 -81 -10 26 -65 -15 3 20
25 19 -22 100 15 -10 -44 -23
-32 -33 14 18 39 45 35 -71
-4 -24 10 51 6 -2 -55 -25
53 -54 81 27 1 49 6 -55
20 -48 -25 40 -41 30 -21 52
127 66 42 -33 -29 19 48 -32
66 5 71 26 6 16 73 13
-68 -45 -20 -1 -43 -67 20 19
22 49 33 -18 19 17 -55 -10
43 -56 -9 -12 -21 -25 40 -35
7 -64 22 7 -31 0 7 30
10 28 -31 -34 -5 0 26 -91
-81 -27 11 68 -15 127 -12 -76
-49 36 -81 -59 44 -47 -59 29
-127 71 10 -21 -45 7 48 37
37 101 18 47 -85 -59 -52 15
-102 -9 -9 42 0 -13 -5 55
-85 35 -64 -39 17 47 5 41
16 -88 -66 80 12 -12 -16 6
-28 -25 -9 -23 -4 -3 -94 18
46 -80 92 -23 45 3 31 -35
63 -46 -27 61 14 43 26 -90
65 -72 -78 47 28 10 -99 -34
19 0 -15 -60 127 34 12 -49
72 27 31 62 85 75 112 65
48 43 -42 -23 -12 28 -36 -12
-69 48 109 -34 -77 97 46 -48
-46 121 36 -23 29 78 -14 3
-55 -22 55 19 -15 -91 58 -25
22 -36 52 -5 2 48 -22 28
00000000: 1528 012b b30c 1a01 dbaf f61a bff1 0314
00000010: 1913 ea64 0ff6 d4e9 e0df 0e12 272d 23b9
00000020: fce8 0a33 06fe c9e7 35ca 511b 0131 06c9
00000030: 14d0 e728 d71e eb34 7f42 2adf e313 30e0
00000040: 4205 471a 0610 490d bcd3 ecff d5bd 1413
00000050: 1631 21ee 1311 c9f6 2bc8 f7f4 ebe7 28dd
00000060: 07c0 1607 e100 071e 0a1c e1de fb00 1aa5
00000070: afe5 0b44 f17f f4b4 cf24 afc5 2cd1 c51d
00000080: 8147 0aeb d307 3025 2565 122f abc5 cc0f
00000090: 9af7 f72a 00f3 fb37 ab23 c0d9 112f 0529
000000a0: 10a8 be50 0cf4 f006 e4e7 f7e9 fcfd a212
000000b0: 2eb0 5ce9 2d03 1fdd 3fd2 e53d 0e2b 1aa6
000000c0: 41b8 b22f 1c0a 9dde 1300 f1c4 7f22 0ccf
000000d0: 481b 1f3e 554b 7041 302b d6e9 f41c dcf4
000000e0: bb30 6dde b361 2ed0 d279 24e9 1d4e f203
000000f0: c9ea 3713 f1a5 3ae7 16dc 34fb 0230 ea1c

tfl.pseudo_qconst5 i1 [1, 23, 1, 64]
-111 -100 89 -127 -7 127 80 127
21 2 87 -113 -127 -127 43 58
127 17 -38 33 60 10 69 -15
28 3 -127 13 105 103 127 87
127 -127 -47 127 -38 2 -51 73
-86 -16 -96 -4 123 -56 127 71
-10 -42 60 -12 77 125 -3 78
-111 9 -27 98 101 -60 -15 97
-71 -51 102 -34 -25 103 79 92
-17 -9 56 -65 -83 13 4 46
105 114 0 44 59 -6 46 -56
21 25 -70 20 127 85 87 47
126 -110 -23 123 -39 -11 -38 41
-73 38 -113 -50 90 -50 79 103
-15 -83 70 -31 94 78 -17 96
-90 0 -24 88 102 -32 -9 86
-96 -22 40 -36 -18 83 127 82
-35 9 -38 -72 -87 114 -45 54
73 127 -1 127 11 -21 2 -99
17 34 33 -10 92 85 69 20
81 -111 -9 96 -40 30 -29 43
-37 21 -70 -28 30 -40 56 102
-20 -108 82 -28 114 92 -38 108
-70 16 -52 95 67 -48 25 63
-85 12 71 -40 -7 39 121 57
-31 -15 18 -17 -84 110 -12 72
0 127 -20 88 -15 -10 -27 -88
13 8 -4 -30 53 61 17 59
27 -75 -21 69 -72 116 -26 101
-3 69 -59 0 11 -33 -14 83
-10 -110 84 -8 127 127 -45 83
-53 -9 -45 40 48 -41 59 27
00000000: 919c 5981 f97f 507f 1502 578f 8181 2b3a
00000010: 7f11 da21 3c0a 45f1 1c03 810d 6967 7f57
00000020: 7f81 d17f da02 cd49 aaf0 a0fc 7bc8 7f47
00000030: f6d6 3cf4 4d7d fd4e 9109 e562 65c4 f161
00000040: b9cd 66de e767 4f5c eff7 38bf ad0d 042e
00000050: 6972 002c 3bfa 2ec8 1519 ba14 7f55 572f
00000060: 7e92 e97b d9f5 da29 b726 8fce 5ace 4f67
00000070: f1ad 46e1 5e4e ef60 a600 e858 66e0 f756
00000080: a0ea 28dc ee53 7f52 dd09 dab8 a972 d336
00000090: 497f ff7f 0beb 029d 1122 21f6 5c55 4514
000000a0: 5191 f760 d81e e32b db15 bae4 1ed8 3866
000000b0: ec94 52e4 725c da6c ba10 cc5f 43d0 193f
000000c0: ab0c 47d8 f927 7939 e1f1 12ef ac6e f448
000000d0: 007f ec58 f1f6 e5a8 0d08 fce2 353d 113b
000000e0: 1bb5 eb45 b874 e665 fd45 c500 0bdf f253
000000f0: f692 54f8 7f7f d353 cbf7 d328 30d7 3b1b

tfl.pseudo_qconst7 i1 [64, 1, 1, 64]
4 -38 -32 -89 73 7 25 6
30 38 -46 -1 -49 -105 6 49
117 20 60 41 -29 -23 31 68
-45 -45 -63 0 33 -25 79 39
-1 -42 -16 -115 35 -8 10 -4
49 -48 -55 -66 -25 -24 -32 -101
-28 14 -22 -67 41 -71 -47 71
47 16 85 16 127 8 -23 -34
28 -24 -4 -97 -71 -70 12 -43
-23 52 -36 -26 -35 -64 9 -29
-55 0 -35 5 10 -27 69 20
-66 2 39 -10 8 -28 84 -51
-127 -32 -50 28 43 33 39 19
10 29 25 4 15 1 -22 -73
-90 -9 -38 -59 1 39 -1 52
-39 24 -38 -30 -2 -49 10 37
-66 -75 -67 34 -26 60 -59 -84
7 -58 -42 -86 -1 -59 -40 -15
-6 87 62 -6 18 -22 105 95
18 40 1 -38 -38 -6 -52 53
27 -70 35 -42 45 -4 21 39
10 48 127 1 -64 -50 -27 -1
-103 -76 -44 -23 2 11 -86 19
19 61 -119 -39 -95 93 18 -35
-35 -50 49 -88 50 22 14 -27
-6 -20 87 -67 -53 -23 -20 -113
-2 -69 -54 53 -48 -8 -12 -21
-34 8 46 12 31 -20 -19 0
-37 -35 3 -98 25 48 -13 -40
72 -19 14 -116 35 24 32 -61
31 17 5 2 49 47 44 -58
-127 -23 9 56 -18 -4 -68 -5
00000000: 04da e0a7 4907 1906 1e26 d2ff cf97 0631
00000010: 7514 3c29 e3e9 1f44 d3d3 c100 21e7 4f27
00000020: ffd6 f08d 23f8 0afc 31d0 c9be e7e8 e09b
00000030: e40e eabd 29b9 d147 2f10 5510 7f08 e9de
00000040: 1ce8 fc9f b9ba 0cd5 e934 dce6 ddc0 09e3
00000050: c900 dd05 0ae5 4514 be02 27f6 08e4 54cd
00000060: 81e0 ce1c 2b21 2713 0a1d 1904 0f01 eab7
00000070: a6f7 dac5 0127 ff34 d918 dae2 fecf 0a25
00000080: beb5 bd22 e63c c5ac 07c6 d6aa ffc5 d8f1
00000090: fa57 3efa 12ea 695f 1228 01da dafa cc35
000000a0: 1bba 23d6 2dfc 1527 0a30 7f01 c0ce e5ff
000000b0: 99b4 d4e9 020b aa13 133d 89d9 a15d 12dd
000000c0: ddce 31a8 3216 0ee5 faec 57bd cbe9 ec8f
000000d0: febb ca35 d0f8 f4eb de08 2e0c 1fec ed00
000000e0: dbdd 039e 1930 f3d8 48ed 0e8c 2318 20c3
000000f0: 1f11 0502 312f 2cc6 81e9 0938 eefc bcfb

tfl.pseudo_qconst9 i1 [1, 15, 1, 32]
95 58 75 -107 28 -14 18 -45
-6 11 127 127 86 -9 -2 25
106 -69 -118 80 127 -48 -127 87
127 19 -102 -5 109 127 -50 -41
94 42 33 -127 31 -2 27 32
-26 -4 49 88 64 -5 45 -92
127 -4 -22 25 58 -9 -51 -36
84 8 -127 -5 64 84 -50 -127
78 52 5 -71 36 -44 54 26
-31 -11 52 43 36 8 -22 -127
80 43 -86 34 22 -26 -15 -7
69 6 -94 -41 49 93 -62 -58
76 66 -5 -41 37 6 32 -11
-55 95 27 10 -25 20 15 -76
30 5 -63 127 58 -28 -15 28
76 -16 -85 15 105 93 -35 -103
67 36 10 15 76 -23 -12 90
37 93 13 42 4 -27 -21 -60
-33 16 -66 109 76 -59 24 -20
36 40 -54 72 11 57 -20 -117
34 27 30 69 28 97 26 91
25 19 30 -1 -11 41 7 -57
-77 -73 -9 37 87 -63 34 13
36 53 -101 37 -35 89 4 -82
-23 0 -60 -21 22 99 -8 60
-10 -127 -41 -12 -8 33 27 23
-3 -3 38 65 23 -39 -17 68
46 101 -62 18 -46 73 21 18
1 11 -36 54 0 79 -68 -14
21 -84 -74 -23 39 19 46 -10
-42 -79 43 96 -57 26 -113 7
33 21 -61 -13 -83 15 -41 -4
00000000: 5f3a 4b95 1cf2 12d3 fa0b 7f7f 56f7 fe19
00000010: 6abb 8a50 7fd0 8157 7f13 9afb 6d7f ced7
00000020: 5e2a 2181 1ffe 1b20 e6fc 3158 40fb 2da4
00000030: 7ffc ea19 3af7 cddc 5408 81fb 4054 ce81
00000040: 4e34 05b9 24d4 361a e1f5 342b 2408 ea81
00000050: 502b aa22 16e6 f1f9 4506 a2d7 315d c2c6
00000060: 4c42 fbd7 2506 20f5 c95f 1b0a e714 0fb4
00000070: 1e05 c17f 3ae4 f11c 4cf0 ab0f 695d dd99
00000080: 4324 0a0f 4ce9 f45a 255d 0d2a 04e5 ebc4
00000090: df10 be6d 4cc5 18ec 2428 ca48 0b39 ec8b
000000a0: 221b 1e45 1c61 1a5b 1913 1eff f529 07c7
000000b0: b3b7 f725 57c1 220d 2435 9b25 dd59 04ae
000000c0: e900 c4eb 1663 f83c f681 d7f4 f821 1b17
000000d0: fdfd 2641 17d9 ef44 2e65 c212 d249 1512
000000e0: 010b dc36 004f bcf2 15ac b6e9 2713 2ef6
000000f0: d6b1 2b60 c71a 8f07 2115 c3f3 ad0f d7fc

tfl.pseudo_qconst11 i1 [1, 9, 1, 32]
123 -117 127 55 -63 -69 -127 -83
-56 -4 17 -2 -17 -63 -29 93
10 -69 60 1 -69 127 -32 -11
30 -34 24 -12 55 19 -86 -111
-78 -127 -19 -99 46 57 -117 1
-28 -38 -14 -11 -13 9 -49 65
30 8 -11 -40 -55 78 58 -15
19 -75 -44 7 72 -24 -55 -66
65 -120 -20 -96 52 -15 67 -54
30 7 55 26 46 66 89 36
-5 -1 35 -13 42 27 0 45
-19 -110 -62 -35 127 -24 66 87
-120 -111 94 -66 -62 109 -7 -45
27 12 15 -33 -6 89 -43 41
12 81 -4 -32 97 63 -10 70
49 119 -52 9 94 -73 90 89
-70 -111 58 -29 -57 96 25 -21
15 11 96 -3 10 127 41 48
-19 60 29 -19 111 -18 -20 70
14 127 -15 82 21 -94 127 21
-99 -101 -70 94 -101 108 -49 -8
83 -35 35 12 56 70 -127 -9
-24 -38 49 -47 -66 -83 2 44
31 -28 104 65 -42 -20 88 78
-127 -26 34 127 -41 -41 -93 25
109 -65 -101 -4 28 31 -73 -25
-42 -27 10 -69 -127 12 -1 -27
42 20 63 102 -34 -19 30 12
26 -102 -40 17 61 -102 -18 -69
127 -47 -127 71 117 -29 -99 -26
-90 -127 127 -59 -105 77 -124 -52
56 -118 58 109 -32 20 -26 -127
00000000: 7b8b 7f37 c1bb 81ad c8fc 11fe efc1 e35d
00000010: 0abb 3c01 bb7f e0f5 1ede 18f4 3713 aa91
00000020: b281 ed9d 2e39 8b01 e4da f2f5 f309 cf41
00000030: 1e08 f5d8 c94e 3af1 13b5 d407 48e8 c9be
00000040: 4188 eca0 34f1 43ca 1e07 371a 2e42 5924
00000050: fbff 23f3 2a1b 002d ed92 c2dd 7fe8 4257
00000060: 8891 5ebe c26d f9d3 1b0c 0fdf fa59 d529
00000070: 0c51 fce0 613f f646 3177 cc09 5eb7 5a59
00000080: ba91 3ae3 c760 19eb 0f0b 60fd 0a7f 2930
00000090: ed3c 1ded 6fee ec46 0e7f f152 15a2 7f15
000000a0: 9d9b ba5e 9b6c cff8 53dd 230c 3846 81f7
000000b0: e8da 31d1 bead 022c 1fe4 6841 d6ec 584e
000000c0: 81e6 227f d7d7 a319 6dbf 9bfc 1c1f b7e7
000000d0: d6e5 0abb 810c ffe5 2a14 3f66 deed 1e0c
000000e0: 1a9a d811 3d9a eebb 7fd1 8147 75e3 9de6
000000f0: a681 7fc5 974d 84cc 388a 3a6d e014 e681

tfl.pseudo_qconst13 i1 [64, 1, 1, 64]
72 95 32 -60 75 74 22 5
-23 -32 52 53 -25 -22 -24 121
1 46 35 -125 -94 100 -12 49
-35 -13 -32 53 -34 -18 18 51
18 5 18 -10 -24 -69 12 48
26 69 63 45 -51 7 45 31
62 -60 -12 16 45 -127 -47 -19
-110 -28 -15 1 -12 -4 -43 -74
90 115 -47 81 19 -4 -6 -41
-4 33 57 34 -111 -113 41 15
67 21 27 35 -50 46 0 66
4 -37 0 3 -1 -39 -68 -32
93 16 40 13 23 2 -53 -15
-29 3 42 -7 12 20 2 94
58 91 127 -53 -26 -38 10 -33
2 46 70 -15 34 88 7 -11
35 87 -42 15 -21 32 -27 -42
36 -47 52 18 -53 6 -39 72
2 3 2 8 -105 43 127 87
-39 38 -15 -35 -2 122 30 1
19 27 103 1 -74 28 -101 68
-6 79 60 0 3 -14 -89 115
8 20 65 -45 -107 15 -24 -12
30 -49 43 -37 -83 -29 72 42
-22 -47 21 -62 43 19 -8 -44
-45 -1 -19 -70 66 -11 -67 -40
-95 -11 26 -32 -21 -80 70 51
35 52 83 6 8 51 53 23
-2 70 -27 91 14 -2 67 66
-27 -15 -30 -49 21 -47 -119 99
55 -42 83 -48 -21 -33 127 -21
21 9 22 -56 -74 -41 -48 -27
00000000: 485f 20c4 4b4a 1605 e9e0 3435 e7ea e879
00000010: 012e 2383 a264 f431 ddf3 e035 deee 1233
00000020: 1205 12f6 e8bb 0c30 1a45 3f2d cd07 2d1f
00000030: 3ec4 f410 2d81 d1ed 92e4 f101 f4fc d5b6
00000040: 5a73 d151 13fc fad7 fc21 3922 918f 290f
00000050: 4315 1b23 ce2e 0042 04db 0003 ffd9 bce0
00000060: 5d10 280d 1702 cbf1 e303 2af9 0c14 025e
00000070: 3a5b 7fcb e6da 0adf 022e 46f1 2258 07f5
00000080: 2357 d60f eb20 e5d6 24d1 3412 cb06 d948
00000090: 0203 0208 972b 7f57 d926 f1dd fe7a 1e01
000000a0: 131b 6701 b61c 9b44 fa4f 3c00 03f2 a773
000000b0: 0814 41d3 950f e8f4 1ecf 2bdb ade3 482a
000000c0: ead1 15c2 2b13 f8d4 d3ff edba 42f5 bdd8
000000d0: a1f5 1ae0 ebb0 4633 2334 5306 0833 3517
000000e0: fe46 e55b 0efe 4342 e5f1 e2cf 15d1 8963
000000f0: 37d6 53d0 ebdf 7feb 1509 16c8 b6d7 d0e5

tfl.pseudo_qconst15 i1 [1, 11, 1, 32]
-25 -108 15 -38 -127 -70 -39 5
59 -40 -105 -127 127 55 43 -127
43 -66 -91 37 -41 -17 -107 -18
-127 -100 127 -60 24 -45 21 -127
-46 -27 -51 -74 -52 -9 35 117
54 -25 -54 13 113 44 80 -108
66 -60 -127 79 27 5 -76 -26
-41 -86 27 25 57 19 49 -23
-18 40 40 -127 30 22 65 91
5 24 -111 55 54 65 -18 -60
127 -127 -93 50 36 14 -97 -25
-106 -98 88 45 -10 42 98 33
2 7 127 -65 38 97 -60 46
-27 17 0 4 33 6 50 -88
81 -93 19 107 -84 12 -127 -58
-78 -107 -34 8 -3 -95 27 -30
5 28 47 -17 1 -45 -119 51
11 59 90 2 36 -61 -33 -80
67 -81 -55 80 -127 -72 -121 -27
6 -36 -45 19 60 -85 43 -29
74 -4 82 42 -88 -105 -57 35
-55 94 127 72 81 -102 -4 20
47 55 -19 41 -79 -19 -81 -6
-56 9 -46 -44 -34 -88 20 49
34 82 -49 -5 70 -127 -23 -83
-46 76 11 26 70 -127 -52 -45
19 30 -20 -95 -69 -27 59 -5
23 49 67 -127 -47 51 -33 17
-70 99 -5 -13 17 1 -127 -102
7 -6 88 -111 8 -65 -104 14
58 -39 64 28 -26 49 50 13
77 -7 -22 -76 -127 18 35 15
00000000: e794 0fda 81ba d905 3bd8 9781 7f37 2b81
00000010: 2bbe a525 d7ef 95ee 819c 7fc4 18d3 1581
00000020: d2e5 cdb6 ccf7 2375 36e7 ca0d 712c 5094
00000030: 42c4 814f 1b05 b4e6 d7aa 1b19 3913 31e9
00000040: ee28 2881 1e16 415b 0518 9137 3641 eec4
00000050: 7f81 a332 240e 9fe7 969e 582d f62a 6221
00000060: 0207 7fbf 2661 c42e e511 0004 2106 32a8
00000070: 51a3 136b ac0c 81c6 b295 de08 fda1 1be2
00000080: 051c 2fef 01d3 8933 0b3b 5a02 24c3 dfb0
00000090: 43af c950 81b8 87e5 06dc d313 3cab 2be3
000000a0: 4afc 522a a897 c723 c95e 7f48 519a fc14
000000b0: 2f37 ed29 b1ed affa c809 d2d4 dea8 1431
000000c0: 2252 cffb 4681 e9ad d24c 0b1a 4681 ccd3
000000d0: 131e eca1 bbe5 3bfb 1731 4381 d133 df11
000000e0: ba63 fbf3 1101 819a 07fa 5891 08bf 980e
000000f0: 3ad9 401c e631 320d 4df9 eab4 8112 230f

tfl.pseudo_qconst17 i1 [1, 7, 1, 32]
55 98 -114 -112 -33 48 34 -110
42 35 -19 44 -70 77 -74 -33
48 101 -15 -50 73 -84 -99 71
-50 -127 -78 -127 33 -84 12 -127
-11 -97 -82 -127 -13 36 19 2
-37 37 46 -2 101 85 34 -28
19 87 23 -52 92 -84 -97 -75
122 -27 -127 -92 19 -68 51 52
90 -79 -127 -31 28 -17 -4 -64
-48 -11 60 -7 45 127 85 -56
5 61 -115 0 58 46 127 -95
71 121 123 -22 -100 8 127 -34
-58 -89 45 -29 74 51 -58 73
76 -8 82 70 127 56 55 -22
-48 -34 -127 -30 127 124 40 -104
-127 109 3 11 -127 127 89 0
-22 -127 46 41 71 -22 -24 77
127 -44 111 15 46 15 24 -60
-74 -114 -87 -55 123 112 -30 -77
10 77 7 6 -76 43 5 65
-120 -44 99 63 127 -127 39 127
5 -94 62 -127 63 14 -44 54
-95 -127 -95 -80 75 127 -99 -61
46 -18 -8 -90 -77 61 8 11
-127 -125 125 77 112 -95 127 119
-70 -127 127 -39 -74 50 -127 127
-127 -93 -84 -127 73 119 -80 127
-34 -29 -80 -91 -3 -59 68 -42
00000000: 3762 8e90 df30 2292 2a23 ed2c ba4d b6df
00000010: 3065 f1ce 49ac 9d47 ce81 b281 21ac 0c81
00000020: f59f ae81 f324 1302 db25 2efe 6555 22e4
00000030: 1357 17cc 5cac 9fb5 7ae5 81a4 13bc 3334
00000040: 5ab1 81e1 1cef fcc0 d0f5 3cf9 2d7f 55c8
00000050: 053d 8d00 3a2e 7fa1 4779 7bea 9c08 7fde
00000060: c6a7 2de3 4a33 c649 4cf8 5246 7f38 37ea
00000070: d0de 81e2 7f7c 2898 816d 030b 817f 5900
00000080: ea81 2e29 47ea e84d 7fd4 6f0f 2e0f 18c4
00000090: b68e a9c9 7b70 e2b3 0a4d 0706 b42b 0541
000000a0: 88d4 633f 7f81 277f 05a2 3e81 3f0e d436
000000b0: a181 a1b0 4b7f 9dc3 2eee f8a6 b33d 080b
000000c0: 8183 7d4d 70a1 7f77 ba81 7fd9 b632 817f
000000d0: 81a3 ac81 4977 b07f dee3 b0a5 fdc5 44d6

tfl.pseudo_qconst19 i1 [64, 1, 1, 32]
58 120 44 63 -38 -86 93 88
71 9 20 -16 -79 -54 19 8
-102 25 62 -57 -28 -110 -22 -125
80 113 -37 52 88 -69 -51 -127
-64 109 23 18 20 97 -28 16
-111 -22 -87 27 -1 37 -35 -32
48 -55 14 27 -127 -5 -9 110
-87 49 12 33 77 -42 21 -3
2 -48 68 -34 25 2 10 -23
38 40 25 -31 -127 18 24 -9
81 -28 24 27 36 -21 -14 18
44 73 42 -15 8 31 -24 -20
-55 6 79 -16 27 3 69 -13
37 23 -70 36 -115 -127 20 -74
-89 -9 -18 45 73 -62 19 -30
-20 23 -75 30 -11 -47 -5 -13
-60 15 -127 -59 -10 -33 14 29
-91 -11 -30 -6 39 -13 75 26
8 -43 29 -6 12 -79 13 16
-27 -40 -48 -12 107 124 32 41
-37 -76 17 33 -4 14 11 -49
67 -32 -45 -17 0 -81 -8 -127
-14 49 -25 18 2 -45 -1 -19
37 -29 64 -54 8 -47 21 -100
17 -48 -4 -8 -41 122 26 -13
20 -30 -124 23 -20 117 46 100
-26 40 -61 -87 2 -36 -101 -25
-20 42 -28 61 0 28 -127 46
-34 77 38 12 9 -127 -6 40
99 -2 35 -5 -14 49 -16 -16
27 -4 95 39 76 -83 80 -62
45 7 -52 32 -17 39 44 -6
00000000: 3a78 2c3f daaa 5d58 4709 14f0 b1ca 1308
00000010: 9a19 3ec7 e492 ea83 5071 db34 58bb cd81
00000020: c06d 1712 1461 e410 91ea a91b ff25 dde0
00000030: 30c9 0e1b 81fb f76e a931 0c21 4dd6 15fd
00000040: 02d0 44de 1902 0ae9 2628 19e1 8112 18f7
00000050: 51e4 181b 24eb f212 2c49 2af1 081f e8ec
00000060: c906 4ff0 1b03 45f3 2517 ba24 8d81 14b6
00000070: a7f7 ee2d 49c2 13e2 ec17 b51e f5d1 fbf3
00000080: c40f 81c5 f6df 0e1d a5f5 e2fa 27f3 4b1a
00000090: 08d5 1dfa 0cb1 0d10 e5d8 d0f4 6b7c 2029
000000a0: dbb4 1121 fc0e 0bcf 43e0 d3ef 00af f881
000000b0: f231 e712 02d3 ffed 25e3 40ca 08d1 159c
000000c0: 11d0 fcf8 d77a 1af3 14e2 8417 ec75 2e64
000000d0: e628 c3a9 02dc 9be7 ec2a e43d 001c 812e
000000e0: de4d 260c 0981 fa28 63fe 23fb f231 f0f0
000000f0: 1bfc 5f27 4cad 50c2 2d07 cc20 ef27 2cfa

tfl.pseudo_qconst21 i1 [1, 5, 1, 32]
-127 100 127 15 103 -22 64 -2
120 -61 -85 -127 -19 -34 -58 -113
15 75 27 -39 90 -127 -37 110
37 18 -27 107 -58 5 29 -102
-110 -52 66 73 80 -116 127 -12
52 127 -120 10 -45 -115 -48 -127
24 127 127 116 4 38 36 63
127 -14 -88 96 -74 -52 117 -71
-116 -8 49 127 -127 -20 72 120
127 -77 26 -111 -79 -127 -127 -53
-127 82 108 109 17 -1 85 127
42 -61 -94 -127 -52 -127 101 -127
28 127 71 59 -111 95 17 -100
127 -36 127 10 -27 58 57 98
-94 44 -9 -34 -119 53 -106 45
111 -29 97 -89 -113 -108 127 5
-70 67 68 100 -33 127 -44 -127
26 31 -11 -64 -127 83 33 30
-82 115 40 -127 -127 106 -127 15
76 -127 127 45 -127 23 -92 91
00000000: 8164 7f0f 67ea 40fe 78c3 ab81 edde c68f
00000010: 0f4b 1bd9 5a81 db6e 2512 e56b c605 1d9a
00000020: 92cc 4249 508c 7ff4 347f 880a d38d d081
00000030: 187f 7f74 0426 243f 7ff2 a860 b6cc 75b9
00000040: 8cf8 317f 81ec 4878 7fb3 1a91 b181 81cb
00000050: 8152 6c6d 11ff 557f 2ac3 a281 cc81 6581
00000060: 1c7f 473b 915f 119c 7fdc 7f0a e53a 3962
00000070: a22c f7de 8935 962d 6fe3 61a7 8f94 7f05
00000080: ba43 4464 df7f d481 1a1f f5c0 8153 211e
00000090: ae73 2881 816a 810f 4c81 7f2d 8117 a45b

tfl.pseudo_qconst23 i1 [32, 5, 1, 40]
-30 47 -16 -24 -127 -7 -40 34
-96 46 -1 -5 -34 38 -16 63
-49 45 -67 -36 -53 -60 -113 17
-96 17 -9 27 58 -22 -3 51
-13 -23 34 14 26 44 67 89
22 3 -2 49 -101 -13 -12 3
-82 61 -23 75 -30 -10 -47 67
-5 -1 -21 -5 36 27 -72 -19
-96 -15 -64 -37 3 -42 -27 -23
-36 6 -14 36 6 15 81 32
53 25 -36 5 -74 19 1 50
-52 42 -40 36 -22 33 -3 44
44 33 -35 -38 -17 18 -50 -26
-60 -17 5 -12 23 -37 -48 18
-33 -55 -18 4 26 43 37 49
46 50 -28 33 -50 15 -28 -1
-45 66 -8 34 -1 29 -59 48
0 20 -27 -23 -15 -9 -97 -4
-16 -48 -35 1 -30 -68 -48 7
-25 -48 -56 38 12 9 32 59
-2 44 -10 43 -64 -15 -14 48
-37 24 -66 6 -30 7 -5 -18
10 13 -43 -4 -31 48 -76 2
-38 -60 -53 10 -94 -119 -31 -7
-25 -81 -18 -34 2 23 58 56
49 -11 61 -39 10 -93 -48 -49
-33 37 -25 -34 -30 -2 39 -33
-19 1 42 -5 16 -52 38 -42
-1 29 39 86 35 115 63 104
17 71 98 91 55 127 55 86
66 -31 67 3 43 -92 -41 -55
-39 10 -11 -32 -30 6 -20 -53
00000000: e22f f0e8 81f9 d822 a02e fffb de26 f03f
00000010: cf2d bddc cbc4 8f11 a011 f71b 3aea fd33
00000020: f3e9 220e 1a2c 4359 1603 fe31 9bf3 f403
00000030: ae3d e94b e2f6 d143 fbff ebfb 241b b8ed
00000040: a0f1 c0db 03d6 e5e9 dc06 f224 060f 5120
00000050: 3519 dc05 b613 0132 cc2a d824 ea21 fd2c
00000060: 2c21 ddda ef12 cee6 c4ef 05f4 17db d012
00000070: dfc9 ee04 1a2b 2531 2e32 e421 ce0f e4ff
00000080: d342 f822 ff1d c530 0014 e5e9 f1f7 9ffc
00000090: f0d0 dd01 e2bc d007 e7d0 c826 0c09 203b
000000a0: fe2c f62b c0f1 f230 db18 be06 e207 fbee
000000b0: 0a0d d5fc e130 b402 dac4 cb0a a289 e1f9
000000c0: e7af eede 0217 3a38 31f5 3dd9 0aa3 d0cf
000000d0: df25 e7de e2fe 27df ed01 2afb 10cc 26d6
000000e0: ff1d 2756 2373 3f68 1147 625b 377f 3756
000000f0: 42e1 4303 2ba4 d7c9 d90a f5e0 e206 eccb

tfl.pseudo_qconst24 i1 [1, 14, 1, 64] scale=0.046937462 zero_point=-128
0.0 0.0 0.0 0.0 0.0 0.0 0.0 0.0
0.0 0.0 0.0 0.0 0.0 0.0 0.0 0.0
0.0 0.0 0.0 0.0 0.0 0.0 0.0 0.0
0.0 0.0 0.0 0.0 0.0 0.0 0.0 0.0
0.0 0.0 0.0 0.0 0.0 0.0 0.0 0.0
0.0 0.0 0.0 0.0 0.0 0.0 0.0 0.0
0.0 0.0 0.0 0.0 0.0 0.0 0.0 0.0
0.0 0.0 0.0 0.0 0.0 0.0 0.0 0.0
0.0 0.0 0.0 0.0 0.0 0.0 0.0 0.0
0.0 0.0 0.0 0.0 0.0 0.0 0.0 0.0
0.0 0.0 0.0 0.0 0.0 0.0 0.0 0.0
0.0 0.0 0.0 0.0 0.0 0.0 0.0 0.0
0.0 0.0 0.0 0.0 0.0 0.0 0.0 0.0
0.0 0.0 0.0 0.0 0.0 0.0 0.0 0.0
0.0 0.0 0.0 0.0 0.0 0.0 0.0 0.0
0.0 0.0 0.0 0.0 0.0 0.0 0.0 0.0
0.0 0.0 0.0 0.0 0.0 0.0 0.0 0.0
0.0 0.0 0.0 0.0 0.0 0.0 0.0 0.0
0.0 0.0 0.0 0.0 0.0 0.0 0.0 0.0
0.0 0.0 0.0 0.0 0.0 0.0 0.0 0.0
0.0 0.0 0.0 0.0 0.0 0.0 0.0 0.0
0.0 0.0 0.0 0.0 0.0 0.0 0.0 0.0
0.0 0.0 0.0 0.0 0.0 0.0 0.0 0.0
0.0 0.0 0.0 0.0 0.0 0.0 0.0 0.0
0.0 0.0 0.0 0.0 0.0 0.0 0.0 0.0
0.0 0.0 0.0 0.0 0.0 0.0 0.0 0.0
0.0 0.0 0.0 0.0 0.0 0.0 0.0 0.0
0.0 0.0 0.0 0.0 0.0 0.0 0.0 0.0
0.0 0.0 0.0 0.0 0.0 0.0 0.0 0.0
0.0 0.0 0.0 0.0 0.0 0.0 0.0 0.0
0.0 0.0 0.0 0.0 0.0 0.0 0.0 0.0
0.0 0.0 0.0 0.0 0.0 0.0 0.0 0.0
00000000: 8080 8080 8080 8080 8080 8080 8080 8080
00000010: 8080 8080 8080 8080 8080 8080 8080 8080
00000020: 8080 8080 8080 8080 8080 8080 8080 8080
00000030: 8080 8080 8080 8080 8080 8080 8080 8080
00000040: 8080 8080 8080 8080 8080 8080 8080 8080
00000050: 8080 8080 8080 8080 8080 8080 8080 8080
00000060: 8080 8080 8080 8080 8080 8080 8080 8080
00000070: 8080 8080 8080 8080 8080 8080 8080 8080
00000080: 8080 8080 8080 8080 8080 8080 8080 8080
00000090: 8080 8080 8080 8080 8080 8080 8080 8080
000000a0: 8080 8080 8080 8080 8080 8080 8080 8080
000000b0: 8080 8080 8080 8080 8080 8080 8080 8080
000000c0: 8080 8080 8080 8080 8080 8080 8080 8080
000000d0: 8080 8080 8080 8080 8080 8080 8080 8080
000000e0: 8080 8080 8080 8080 8080 8080 8080 8080
000000f0: 8080 8080 8080 8080 8080 8080 8080 8080

tfl.pseudo_qconst25 i1 [1, 10, 1, 64] scale=0.043171868 zero_point=-128
0.0 0.0 0.0 0.0 0.0 0.0 0.0 0.0
0.0 0.0 0.0 0.0 0.0 0.0 0.0 0.0
0.0 0.0 0.0 0.0 0.0 0.0 0.0 0.0
0.0 0.0 0.0 0.0 0.0 0.0 0.0 0.0
0.0 0.0 0.0 0.0 0.0 0.0 0.0 0.0
0.0 0.0 0.0 0.0 0.0 0.0 0.0 0.0
0.0 0.0 0.0 0.0 0.0 0.0 0.0 0.0
0.0 0.0 0.0 0.0 0.0 0.0 0.0 0.0
0.0 0.0 0.0 0.0 0.0 0.0 0.0 0.0
0.0 0.0 0.0 0.0 0.0 0.0 0.0 0.0
0.0 0.0 0.0 0.0 0.0 0.0 0.0 0.0
0.0 0.0 0.0 0.0 0.0 0.0 0.0 0.0
0.0 0.0 0.0 0.0 0.0 0.0 0.0 0.0
0.0 0.0 0.0 0.0 0.0 0.0 0.0 0.0
0.0 0.0 0.0 0.0 0.0 0.0 0.0 0.0
0.0 0.0 0.0 0.0 0.0 0.0 0.0 0.0
0.0 0.0 0.0 0.0 0.0 0.0 0.0 0.0
0.0 0.0 0.0 0.0 0.0 0.0 0.0 0.0
0.0 0.0 0.0 0.0 0.0 0.0 0.0 0.0
0.0 0.0 0.0 0.0 0.0 0.0 0.0 0.0
0.0 0.0 0.0 0.0 0.0 0.0 0.0 0.0
0.0 0.0 0.0 0.0 0.0 0.0 0.0 0.0
0.0 0.0 0.0 0.0 0.0 0.0 0.0 0.0
0.0 0.0 0.0 0.0 0.0 0.0 0.0 0.0
0.0 0.0 0.0 0.0 0.0 0.0 0.0 0.0
0.0 0.0 0.0 0.0 0.0 0.0 0.0 0.0
0.0 0.0 0.0 0.0 0.0 0.0 0.0 0.0
0.0 0.0 0.0 0.0 0.0 0.0 0.0 0.0
0.0 0.0 0.0 0.0 0.0 0.0 0.0 0.0
0.0 0.0 0.0 0.0 0.0 0.0 0.0 0.0
0.0 0.0 0.0 0.0 0.0 0.0 0.0 0.0
0.0 0.0 0.0 0.0 0.0 0.0 0.0 0.0
00000000: 8080 8080 8080 8080 8080 8080 8080 8080
00000010: 8080 8080 8080 8080 8080 8080 8080 8080
00000020: 8080 8080 8080 8080 8080 8080 8080 8080
00000030: 8080 8080 8080 8080 8080 8080 8080 8080
00000040: 8080 8080 8080 8080 8080 8080 8080 8080
00000050: 8080 8080 8080 8080 8080 8080 8080 8080
00000060: 8080 8080 8080 8080 8080 8080 8080 8080
00000070: 8080 8080 8080 8080 8080 8080 8080 8080
00000080: 8080 8080 8080 8080 8080 8080 8080 8080
00000090: 8080 8080 8080 8080 8080 8080 8080 8080
000000a0: 8080 8080 8080 8080 8080 8080 8080 8080
000000b0: 8080 8080 8080 8080 8080 8080 8080 8080
000000c0: 8080 8080 8080 8080 8080 8080 8080 8080
000000d0: 8080 8080 8080 8080 8080 8080 8080 8080
000000e0: 8080 8080 8080 8080 8080 8080 8080 8080
000000f0: 8080 8080 8080 8080 8080 8080 8080 8080

tfl.pseudo_qconst26 i1 [1, 4, 1, 32] scale=1.306478 zero_point=-128
0.0 0.0 0.0 0.0 0.0 0.0 0.0 0.0
0.0 0.0 0.0 0.0 0.0 0.0 0.0 0.0
0.0 0.0 0.0 0.0 0.0 0.0 0.0 0.0
0.0 0.0 0.0 0.0 0.0 0.0 0.0 0.0
0.0 0.0 0.0 0.0 0.0 0.0 0.0 0.0
0.0 0.0 0.0 0.0 0.0 0.0 0.0 0.0
0.0 0.0 0.0 0.0 0.0 0.0 0.0 0.0
0.0 0.0 0.0 0.0 0.0 0.0 0.0 0.0
0.0 0.0 0.0 0.0 0.0 0.0 0.0 0.0
0.0 0.0 0.0 0.0 0.0 0.0 0.0 0.0
0.0 0.0 0.0 0.0 0.0 0.0 0.0 0.0
0.0 0.0 0.0 0.0 0.0 0.0 0.0 0.0
0.0 0.0 0.0 0.0 0.0 0.0 0.0 0.0
0.0 0.0 0.0 0.0 0.0 0.0 0.0 0.0
0.0 0.0 0.0 0.0 0.0 0.0 0.0 0.0
0.0 0.0 0.0 0.0 0.0 0.0 0.0 0.0
00000000: 8080 8080 8080 8080 8080 8080 8080 8080
00000010: 8080 8080 8080 8080 8080 8080 8080 8080
00000020: 8080 8080 8080 8080 8080 8080 8080 8080
00000030: 8080 8080 8080 8080 8080 8080 8080 8080
00000040: 8080 8080 8080 8080 8080 8080 8080 8080
00000050: 8080 8080 8080 8080 8080 8080 8080 8080
00000060: 8080 8080 8080 8080 8080 8080 8080 8080
00000070: 8080 8080 8080 8080 8080 8080 8080 8080

tfl.pseudo_qconst27 i1 [1, 3, 1, 40] scale=0.101960786 zero_point=-128
0.0 0.0 0.0 0.0 0.0 0.0 0.0 0.0
0.0 0.0 0.0 0.0 0.0 0.0 0.0 0.0
0.0 0.0 0.0 0.0 0.0 0.0 0.0 0.0
0.0 0.0 0.0 0.0 0.0 0.0 0.0 0.0
0.0 0.0 0.0 0.0 0.0 0.0 0.0 0.0
0.0 0.0 0.0 0.0 0.0 0.0 0.0 0.0
0.0 0.0 0.0 0.0 0.0 0.0 0.0 0.0
0.0 0.0 0.0 0.0 0.0 0.0 0.0 0.0
0.0 0.0 0.0 0.0 0.0 0.0 0.0 0.0
0.0 0.0 0.0 0.0 0.0 0.0 0.0 0.0
0.0 0.0 0.0 0.0 0.0 0.0 0.0 0.0
0.0 0.0 0.0 0.0 0.0 0.0 0.0 0.0
0.0 0.0 0.0 0.0 0.0 0.0 0.0 0.0
0.0 0.0 0.0 0.0 0.0 0.0 0.0 0.0
0.0 0.0 0.0 0.0 0.0 0.0 0.0 0.0
00000000: 8080 8080 8080 8080 8080 8080 8080 8080
00000010: 8080 8080 8080 8080 8080 8080 8080 8080
00000020: 8080 8080 8080 8080 8080 8080 8080 8080
00000030: 8080 8080 8080 8080 8080 8080 8080 8080
00000040: 8080 8080 8080 8080 8080 8080 8080 8080
00000050: 8080 8080 8080 8080 8080 8080 8080 8080
00000060: 8080 8080 8080 8080 8080 8080 8080 8080
00000070: 8080 8080 8080 8080

tfl.pseudo_qconst28 i1 [1, 36, 1, 64] scale=0.03284857 zero_point=-128
0.0 0.0 0.0 0.0 0.0 0.0 0.0 0.0
0.0 0.0 0.0 0.0 0.0 0.0 0.0 0.0
0.0 0.0 0.0 0.0 0.0 0.0 0.0 0.0
0.0 0.0 0.0 0.0 0.0 0.0 0.0 0.0
0.0 0.0 0.0 0.0 0.0 0.0 0.0 0.0
0.0 0.0 0.0 0.0 0.0 0.0 0.0 0.0
0.0 0.0 0.0 0.0 0.0 0.0 0.0 0.0
0.0 0.0 0.0 0.0 0.0 0.0 0.0 0.0
0.0 0.0 0.0 0.0 0.0 0.0 0.0 0.0
0.0 0.0 0.0 0.0 0.0 0.0 0.0 0.0
0.0 0.0 0.0 0.0 0.0 0.0 0.0 0.0
0.0 0.0 0.0 0.0 0.0 0.0 0.0 0.0
0.0 0.0 0.0 0.0 0.0 0.0 0.0 0.0
0.0 0.0 0.0 0.0 0.0 0.0 0.0 0.0
0.0 0.0 0.0 0.0 0.0 0.0 0.0 0.0
0.0 0.0 0.0 0.0 0.0 0.0 0.0 0.0
0.0 0.0 0.0 0.0 0.0 0.0 0.0 0.0
0.0 0.0 0.0 0.0 0.0 0.0 0.0 0.0
0.0 0.0 0.0 0.0 0.0 0.0 0.0 0.0
0.0 0.0 0.0 0.0 0.0 0.0 0.0 0.0
0.0 0.0 0.0 0.0 0.0 0.0 0.0 0.0
0.0 0.0 0.0 0.0 0.0 0.0 0.0 0.0
0.0 0.0 0.0 0.0 0.0 0.0 0.0 0.0
0.0 0.0 0.0 0.0 0.0 0.0 0.0 0.0
0.0 0.0 0.0 0.0 0.0 0.0 0.0 0.0
0.0 0.0 0.0 0.0 0.0 0.0 0.0 0.0
0.0 0.0 0.0 0.0 0.0 0.0 0.0 0.0
0.0 0.0 0.0 0.0 0.0 0.0 0.0 0.0
0.0 0.0 0.0 0.0 0.0 0.0 0.0 0.0
0.0 0.0 0.0 0.0 0.0 0.0 0.0 0.0
0.0 0.0 0.0 0.0 0.0 0.0 0.0 0.0
0.0 0.0 0.0 0.0 0.0 0.0 0.0 0.0
00000000: 8080 8080 8080 8080 8080 8080 8080 8080
00000010: 8080 8080 8080 8080 8080 8080 8080 8080
00000020: 8080 8080 8080 8080 8080 8080 8080 8080
00000030: 8080 8080 8080 8080 8080 8080 8080 8080
00000040: 8080 8080 8080 8080 8080 8080 8080 8080
00000050: 8080 8080 8080 8080 8080 8080 8080 8080
00000060: 8080 8080 8080 8080 8080 8080 8080 8080
00000070: 8080 8080 8080 8080 8080 8080 8080 8080
00000080: 8080 8080 8080 8080 8080 8080 8080 8080
00000090: 8080 8080 8080 8080 8080 8080 8080 8080
000000a0: 8080 8080 8080 8080 8080 8080 8080 8080
000000b0: 8080 8080 8080 8080 8080 8080 8080 8080
000000c0: 8080 8080 8080 8080 8080 8080 8080 8080
000000d0: 8080 8080 8080 8080 8080 8080 8080 8080
000000e0: 8080 8080 8080 8080 8080 8080 8080 8080
000000f0: 8080 8080 8080 8080 8080 8080 8080 8080

tfl.pseudo_qconst29 i1 [1, 22, 1, 64] scale=0.053085003 zero_point=-128
0.0 0.0 0.0 0.0 0.0 0.0 0.0 0.0
0.0 0.0 0.0 0.0 0.0 0.0 0.0 0.0
0.0 0.0 0.0 0.0 0.0 0.0 0.0 0.0
0.0 0.0 0.0 0.0 0.0 0.0 0.0 0.0
0.0 0.0 0.0 0.0 0.0 0.0 0.0 0.0
0.0 0.0 0.0 0.0 0.0 0.0 0.0 0.0
0.0 0.0 0.0 0.0 0.0 0.0 0.0 0.0
0.0 0.0 0.0 0.0 0.0 0.0 0.0 0.0
0.0 0.0 0.0 0.0 0.0 0.0 0.0 0.0
0.0 0.0 0.0 0.0 0.0 0.0 0.0 0.0
0.0 0.0 0.0 0.0 0.0 0.0 0.0 0.0
0.0 0.0 0.0 0.0 0.0 0.0 0.0 0.0
0.0 0.0 0.0 0.0 0.0 0.0 0.0 0.0
0.0 0.0 0.0 0.0 0.0 0.0 0.0 0.0
0.0 0.0 0.0 0.0 0.0 0.0 0.0 0.0
0.0 0.0 0.0 0.0 0.0 0.0 0.0 0.0
0.0 0.0 0.0 0.0 0.0 0.0 0.0 0.0
0.0 0.0 0.0 0.0 0.0 0.0 0.0 0.0
0.0 0.0 0.0 0.0 0.0 0.0 0.0 0.0
0.0 0.0 0.0 0.0 0.0 0.0 0.0 0.0
0.0 0.0 0.0 0.0 0.0 0.0 0.0 0.0
0.0 0.0 0.0 0.0 0.0 0.0 0.0 0.0
0.0 0.0 0.0 0.0 0.0 0.0 0.0 0.0
0.0 0.0 0.0 0.0 0.0 0.0 0.0 0.0
0.0 0.0 0.0 0.0 0.0 0.0 0.0 0.0
0.0 0.0 0.0 0.0 0.0 0.0 0.0 0.0
0.0 0.0 0.0 0.0 0.0 0.0 0.0 0.0
0.0 0.0 0.0 0.0 0.0 0.0 0.0 0.0
0.0 0.0 0.0 0.0 0.0 0.0 0.0 0.0
0.0 0.0 0.0 0.0 0.0 0.0 0.0 0.0
0.0 0.0 0.0 0.0 0.0 0.0 0.0 0.0
0.0 0.0 0.0 0.0 0.0 0.0 0.0 0.0
00000000: 8080 8080 8080 8080 8080 8080 8080 8080
00000010: 8080 8080 8080 8080 8080 8080 8080 8080
00000020: 8080 8080 8080 8080 8080 8080 8080 8080
00000030: 8080 8080 8080 8080 8080 8080 8080 8080
00000040: 8080 8080 8080 8080 8080 8080 8080 8080
00000050: 8080 8080 8080 8080 8080 8080 8080 8080
00000060: 8080 8080 8080 8080 8080 8080 8080 8080
00000070: 8080 8080 8080 8080 8080 8080 8080 8080
00000080: 8080 8080 8080 8080 8080 8080 8080 8080
00000090: 8080 8080 8080 8080 8080 8080 8080 8080
000000a0: 8080 8080 8080 8080 8080 8080 8080 8080
000000b0: 8080 8080 8080 8080 8080 8080 8080 8080
000000c0: 8080 8080 8080 8080 8080 8080 8080 8080
000000d0: 8080 8080 8080 8080 8080 8080 8080 8080
000000e0: 8080 8080 8080 8080 8080 8080 8080 8080
000000f0: 8080 8080 8080 8080 8080 8080 8080 8080
