voice_assistant/microwakeword/models/hey_kom_pyu_tah.tflite (tflite, 63536 bytes, 18 tensors)

tfl.pseudo_qconst1 i1 [1, 2368] scale=0.005189563 zero_point=0
0.20239297 0.24390946 -0.119359955 -0.1556869 -0.38921723 -0.015568689 -0.051895633 0.09341214
-0.10898083 -0.09341214 -0.015568689 0.42554417 -0.13492864 -0.23871991 -0.36326942 0.20239297
0.04670607 -0.04670607 0.47743982 -0.26466772 -0.20758253 -0.057085194 -0.22834077 0.28023642
-0.025947817 -0.124549516 0.16087645 -0.32694247 -0.13492864 -0.09341214 -0.06746432 -0.057085194
-0.38921723 -0.057085194 -0.06746432 -0.15049733 -0.25947815 -0.28023642 -0.005189563 -0.18163471
-0.3944068 0.65388495 -0.33213204 -0.1556869 -0.27504686 -0.35289028 -0.119359955 -0.17644514
-0.31656334 -0.37883812 -0.0986017 -0.4359233 -0.39959636 -0.041516505 -0.26466772 -0.34251118
-0.08822257 -0.18163471 -0.5449041 -0.21796165 -0.22834077 -0.4359233 0.06746432 0.005189563
0.09341214 0.07265388 -0.041516505 -0.06746432 -0.20758253 -0.025947817 -0.08303301 0.025947817
-0.06746432 -0.16606602 0.031137379 0.20758253 0.051895633 -0.062274758 -0.14530776 0.08822257
0.0986017 -0.062274758 0.119359955 -0.04670607 -0.08822257 0.031137379 -0.12973908 0.17125559
-0.031137379 -0.10379127 0.07784345 -0.17644514 0.03632694 -0.08822257 -0.057085194 -0.04670607
-0.23871991 -0.062274758 -0.03632694 -0.07784345 -0.09341214 -0.07265388 -0.057085194 -0.12973908
-0.16606602 0.24390946 -0.17125559 -0.119359955 -0.031137379 -0.11417039 0.020758253 -0.19201383
-0.21796165 -0.17125559 -0.07784345 -0.25428858 -0.25428858 -0.020758253 -0.062274758 -0.17125559
0.041516505 -0.09341214 -0.20239297 -0.051895633 -0.08822257 -0.38921723 0.04670607 -0.005189563
-0.025947817 0.010379126 0.015568689 -0.062274758 -0.13492864 0.051895633 -0.005189563 -0.041516505
-0.06746432 -0.17125559 0.010379126 0.06746432 0.07265388 -0.020758253 -0.03632694 0.07784345
0.19201383 -0.08822257 0.031137379 -0.010379126 -0.020758253 0.025947817 -0.06746432 0.12973908
-0.051895633 -0.06746432 0.08822257 -0.07265388 0.07265388 -0.031137379 -0.057085194 -0.07784345
-0.14011821 -0.062274758 0.0 -0.08822257 0.020758253 -0.025947817 -0.020758253 -0.09341214
-0.03632694 0.10379127 -0.13492864 -0.06746432 -0.020758253 -0.08822257 0.010379126 -0.15049733
-0.04670607 -0.057085194 0.031137379 -0.06746432 -0.0986017 0.005189563 -0.051895633 -0.031137379
0.08822257 -0.057085194 -0.057085194 0.020758253 -0.07784345 -0.25428858 0.031137379 -0.051895633
-0.06746432 0.025947817 0.015568689 -0.119359955 -0.119359955 0.005189563 -0.031137379 -0.051895633
-0.07265388 -0.16087645 0.0 0.04670607 -0.041516505 0.005189563 0.010379126 0.057085194
0.17644514 -0.062274758 0.041516505 0.08303301 -0.015568689 -0.025947817 0.025947817 0.062274758
-0.07265388 -0.08303301 0.005189563 -0.04670607 0.06746432 -0.031137379 -0.08822257 -0.062274758
-0.12973908 0.005189563 -0.041516505 -0.057085194 -0.07784345 0.020758253 0.005189563 -0.04670607
0.0 0.005189563 -0.16606602 -0.031137379 0.010379126 -0.025947817 0.015568689 -0.11417039
0.031137379 -0.10379127 0.057085194 -0.031137379 -0.1556869 -0.005189563 0.005189563 0.031137379
0.04670607 -0.005189563 -0.025947817 -0.031137379 -0.020758253 -0.25947815 -0.020758253 -0.08303301
00000000: 272f e9e2 b5fd f612 ebee fd52 e6d2 ba27
00000010: 09f7 5ccd d8f5 d436 fbe8 1fc1 e6ee f3f5
00000020: b5f5 f3e3 ceca ffdd b47e c0e2 cbbc e9de
00000030: c3b7 edac b3f8 cdbe efdd 97d6 d4ac 0d01
00000040: 120e f8f3 d8fb f005 f3e0 0628 0af4 e411
00000050: 13f4 17f7 ef06 e721 faec 0fde 07ef f5f7
00000060: d2f4 f9f1 eef2 f5e7 e02f dfe9 faea 04db
00000070: d6df f1cf cffc f4df 08ee d9f6 efb5 09ff
00000080: fb02 03f4 e60a fff8 f3df 020d 0efc f90f
00000090: 25ef 06fe fc05 f319 f6f3 11f2 0efa f5f1
000000a0: e5f4 00ef 04fb fcee f914 e6f3 fcef 02e3
000000b0: f7f5 06f3 ed01 f6fa 11f5 f504 f1cf 06f6
000000c0: f305 03e9 e901 faf6 f2e1 0009 f801 020b
000000d0: 22f4 0810 fdfb 050c f2f0 01f7 0dfa eff4
000000e0: e701 f8f5 f104 01f7 0001 e0fa 02fb 03ea
000000f0: 06ec 0bfa e2ff 0106 09ff fbfa fcce fcf0

tfl.pseudo_qconst3 i1 [64, 1, 1, 64]
60 -50 -43 120 -52 -23 21 -20
21 28 -6 -37 49 -54 8 -49
-89 35 17 -36 -35 1 -3 3
-38 43 -28 1 -20 -21 -17 5
4 -64 127 -36 -19 28 -39 -41
31 46 21 7 42 23 -10 -23
7 -1 4 -6 42 -7 -77 -44
-39 42 -14 89 19 47 -43 -43
-39 93 -64 19 15 32 9 43
17 -21 -84 35 0 -42 3 -7
-106 54 -121 11 12 -16 -67 -21
-34 62 -20 86 50 124 30 -3
-19 0 -3 52 -53 80 -35 -61
43 -16 19 -17 49 -3 20 -62
-6 127 29 27 -28 -36 -1 -3
18 16 48 97 -3 8 13 45
-43 -15 -35 -6 24 -26 -25 -67
33 -3 58 -50 -21 -127 68 38
-35 58 15 83 99 4 60 14
75 90 23 17 11 -46 -127 -42
-51 -61 102 -47 66 -34 10 80
14 -53 -10 112 119 60 -67 13
-57 40 -7 -29 -26 -62 -23 -37
-13 -90 -19 -50 105 45 72 41
-3 -70 127 21 -37 -26 -92 24
-50 -32 31 24 -24 -51 -36 26
4 -54 53 -12 64 90 46 -12
-63 -3 42 24 -16 -46 9 -17
-109 8 -7 -3 -67 36 2 5
15 50 14 -9 48 8 51 31
26 8 7 -47 -16 -35 58 -34
-33 7 7 -37 -15 -73 4 38
00000000: 3cce d578 cce9 15ec 151c fadb 31ca 08cf
00000010: a723 11dc dd01 fd03 da2b e401 eceb ef05
00000020: 04c0 7fdc ed1c d9d7 1f2e 1507 2a17 f6e9
00000030: 07ff 04fa 2af9 b3d4 d92a f259 132f d5d5
00000040: d95d c013 0f20 092b 11eb ac23 00d6 03f9
00000050: 9636 870b 0cf0 bdeb de3e ec56 327c 1efd
00000060: ed00 fd34 cb50 ddc3 2bf0 13ef 31fd 14c2
00000070: fa7f 1d1b e4dc fffd 1210 3061 fd08 0d2d
00000080: d5f1 ddfa 18e6 e7bd 21fd 3ace eb81 4426
00000090: dd3a 0f53 6304 3c0e 4b5a 1711 0bd2 81d6
000000a0: cdc3 66d1 42de 0a50 0ecb f670 773c bd0d
000000b0: c728 f9e3 e6c2 e9db f3a6 edce 692d 4829
000000c0: fdba 7f15 dbe6 a418 cee0 1f18 e8cd dc1a
000000d0: 04ca 35f4 405a 2ef4 c1fd 2a18 f0d2 09ef
000000e0: 9308 f9fd bd24 0205 0f32 0ef7 3008 331f
000000f0: 1a08 07d1 f0dd 3ade df07 07db f1b7 0426

tfl.pseudo_qconst5 i1 [1, 23, 1, 64]
-127 -84 89 -127 57 -15 -77 127
127 -39 127 -127 -121 127 -127 33
89 43 8 39 114 -127 92 -127
127 127 -109 -127 4 8 127 32
97 40 -126 15 79 -32 -127 -127
19 -127 -60 36 127 12 54 -38
12 5 27 95 -127 -127 80 10
127 -28 127 -98 81 -127 126 -127
-99 -97 106 -86 76 12 -66 89
81 -58 89 -72 -101 103 -65 31
103 32 -6 42 86 -57 87 -79
32 117 -53 -92 -3 7 65 -8
40 60 -127 33 89 16 -82 -65
8 -107 -28 10 96 22 64 -42
-35 10 8 104 -44 -118 90 14
55 -52 71 -53 45 -106 83 -73
-80 -80 98 -80 104 6 -13 63
33 -95 31 -47 -123 92 -54 68
77 -9 -1 23 28 -53 73 -44
6 53 -16 -91 13 0 65 17
71 58 -103 78 91 43 -91 -26
44 -82 -60 11 75 18 28 -34
-16 -5 9 54 -44 -64 51 14
82 -73 73 -81 70 -67 81 -91
-50 -60 103 -62 122 -23 25 40
27 -59 33 -54 -63 75 -13 115
36 -28 -7 34 29 -73 81 -45
41 54 -8 -103 26 19 79 16
52 68 -41 56 49 110 -88 -19
25 -105 -83 -27 41 14 49 -34
-10 0 -9 31 22 -13 22 -4
82 -53 79 -72 127 -60 67 -87
00000000: 81ac 5981 39f1 b37f 7fd9 7f81 877f 8121
00000010: 592b 0827 7281 5c81 7f7f 9381 0408 7f20
00000020: 6128 820f 4fe0 8181 1381 c424 7f0c 36da
00000030: 0c05 1b5f 8181 500a 7fe4 7f9e 5181 7e81
00000040: 9d9f 6aaa 4c0c be59 51c6 59b8 9b67 bf1f
00000050: 6720 fa2a 56c7 57b1 2075 cba4 fd07 41f8
00000060: 283c 8121 5910 aebf 0895 e40a 6016 40d6
00000070: dd0a 0868 d48a 5a0e 37cc 47cb 2d96 53b7
00000080: b0b0 62b0 6806 f33f 21a1 1fd1 855c ca44
00000090: 4df7 ff17 1ccb 49d4 0635 f0a5 0d00 4111
000000a0: 473a 994e 5b2b a5e6 2cae c40b 4b12 1cde
000000b0: f0fb 0936 d4c0 330e 52b7 49af 46bd 51a5
000000c0: cec4 67c2 7ae9 1928 1bc5 21ca c14b f373
000000d0: 24e4 f922 1db7 51d3 2936 f899 1a13 4f10
000000e0: 3444 d738 316e a8ed 1997 ade5 290e 31de
000000f0: f600 f71f 16f3 16fc 52cb 4fb8 7fc4 43a9

tfl.pseudo_qconst7 i1 [64, 1, 1, 64]
-23 4 12 47 94 2 -10 10
-52 25 21 -6 32 -8 18 54
26 60 -10 12 22 14 36 -26
-11 2 -14 -20 -20 61 16 16
18 16 34 57 30 25 -49 18
50 -28 110 -63 -27 -26 79 -127
44 -1 5 -4 -66 32 -55 -21
70 46 57 -35 -26 31 5 15
86 53 47 -39 17 35 37 -13
-3 51 16 -77 21 -72 16 -57
-24 3 -35 44 -57 29 -10 6
13 -9 6 -11 30 2 35 37
-59 10 46 42 -23 60 0 50
-42 -22 34 40 -20 -22 -6 -52
45 -22 -21 19 -9 -85 -42 51
35 -73 15 -27 28 3 127 -9
66 21 9 -40 15 36 22 -11
66 1 -13 31 25 13 102 -12
44 -29 -26 2 -75 2 31 -32
-34 2 -17 -30 -8 42 -14 1
-32 3 127 54 -31 33 -10 26
-28 -24 3 36 -2 -5 -67 23
-44 29 -41 18 18 -68 33 7
-10 70 -20 -9 57 -1 17 42
32 -35 8 -83 -31 -34 -35 -26
-25 -20 -12 -9 -11 9 13 9
18 -35 -59 -30 52 61 -21 20
64 -58 63 -39 -10 -21 18 -49
8 2 38 52 17 -35 30 -10
-80 113 -9 18 36 -27 -49 29
72 -4 38 41 7 -19 -13 22
58 -2 23 127 41 16 -4 -35
00000000: e904 0c2f 5e02 f60a cc19 15fa 20f8 1236
00000010: 1a3c f60c 160e 24e6 f502 f2ec ec3d 1010
00000020: 1210 2239 1e19 cf12 32e4 6ec1 e5e6 4f81
00000030: 2cff 05fc be20 c9eb 462e 39dd e61f 050f
00000040: 5635 2fd9 1123 25f3 fd33 10b3 15b8 10c7
00000050: e803 dd2c c71d f606 0df7 06f5 1e02 2325
00000060: c50a 2e2a e93c 0032 d6ea 2228 ecea facc
00000070: 2dea eb13 f7ab d633 23b7 0fe5 1c03 7ff7
00000080: 4215 09d8 0f24 16f5 4201 f31f 190d 66f4
00000090: 2ce3 e602 b502 1fe0 de02 efe2 f82a f201
000000a0: e003 7f36 e121 f61a e4e8 0324 fefb bd17
000000b0: d41d d712 12bc 2107 f646 ecf7 39ff 112a
000000c0: 20dd 08ad e1de dde6 e7ec f4f7 f509 0d09
000000d0: 12dd c5e2 343d eb14 40c6 3fd9 f6eb 12cf
000000e0: 0802 2634 11dd 1ef6 b071 f712 24e5 cf1d
000000f0: 48fc 2629 07ed f316 3afe 177f 2910 fcdd

tfl.pseudo_qconst9 i1 [1, 15, 1, 32]
127 8 -127 -118 36 25 127 -127
127 85 127 -127 -127 127 -127 -82
11 -25 4 29 113 127 -81 -61
9 -44 -42 127 -127 107 -127 -127
89 -20 -52 -88 66 -23 48 -81
74 77 101 -107 -59 53 -88 -92
7 -48 -41 45 105 119 -69 58
37 -29 10 113 -62 79 -68 -90
52 115 -38 -120 127 14 -4 -28
30 41 30 -88 -63 27 -58 -36
-7 -55 -35 20 127 75 -93 96
11 8 45 93 -53 12 -66 -99
43 109 -24 -60 107 -20 -78 -13
8 60 29 -36 -52 16 -33 -25
-3 -27 -65 45 98 69 -47 88
35 -44 123 68 -3 112 -60 -32
10 127 -11 -123 107 14 -98 -7
17 65 -34 -82 -18 -3 2 -29
-3 -26 -45 27 17 59 -108 2
58 -63 89 30 2 102 -59 4
9 84 1 -86 126 -40 -118 5
-1 98 5 -25 -50 11 9 -44
-10 -35 8 46 -78 47 -62 -7
19 -39 127 50 -22 127 -58 -4
-23 -52 -8 -116 91 -16 -71 -15
37 38 -62 -60 36 -10 -23 8
27 -72 65 127 -85 47 -127 23
23 40 30 66 11 60 6 19
-8 -90 -12 -96 126 -59 -117 5
36 70 -49 -11 -10 -17 -22 17
-6 2 106 66 -112 42 -92 127
45 96 56 24 -8 68 -12 18
00000000: 7f08 818a 2419 7f81 7f55 7f81 817f 81ae
00000010: 0be7 041d 717f afc3 09d4 d67f 816b 8181
00000020: 59ec cca8 42e9 30af 4a4d 6595 c535 a8a4
00000030: 07d0 d72d 6977 bb3a 25e3 0a71 c24f bca6
00000040: 3473 da88 7f0e fce4 1e29 1ea8 c11b c6dc
00000050: f9c9 dd14 7f4b a360 0b08 2d5d cb0c be9d
00000060: 2b6d e8c4 6bec b2f3 083c 1ddc cc10 dfe7
00000070: fde5 bf2d 6245 d158 23d4 7b44 fd70 c4e0
00000080: 0a7f f585 6b0e 9ef9 1141 deae eefd 02e3
00000090: fde6 d31b 113b 9402 3ac1 591e 0266 c504
000000a0: 0954 01aa 7ed8 8a05 ff62 05e7 ce0b 09d4
000000b0: f6dd 082e b22f c2f9 13d9 7f32 ea7f c6fc
000000c0: e9cc f88c 5bf0 b9f1 2526 c2c4 24f6 e908
000000d0: 1bb8 417f ab2f 8117 1728 1e42 0b3c 0613
000000e0: f8a6 f4a0 7ec5 8b05 2446 cff5 f6ef ea11
000000f0: fa02 6a42 902a a47f 2d60 3818 f844 f412

tfl.pseudo_qconst11 i1 [1, 9, 1, 32]
-127 127 39 49 104 -31 -127 -35
40 -49 74 50 -71 -31 7 -12
-55 -30 39 4 78 -12 -64 -41
-10 38 -28 -9 -65 -127 17 -14
-106 88 -66 85 -10 -31 12 22
-93 -127 75 72 -23 -19 0 11
-106 -11 -14 -47 50 -79 -127 68
-24 33 45 -7 -45 -66 -44 6
-58 127 -127 74 -31 3 -82 -30
-54 -69 42 86 -67 13 6 20
-29 50 -5 -32 6 6 -40 -33
42 23 66 -104 -64 -70 -42 27
-63 80 -98 -3 -5 -53 -32 -1
-50 -23 -81 87 -52 11 103 -11
-14 70 66 21 37 -23 61 -75
-30 -14 127 -127 -53 -86 -10 -5
-17 90 -48 83 -16 -14 -96 -29
-40 -75 -89 53 19 64 41 15
45 127 39 66 43 118 81 86
-31 34 59 -17 -5 -84 28 -16
-19 -24 -33 86 0 -105 -81 -44
85 -65 -61 127 -34 72 127 -26
68 127 72 18 43 127 72 72
-28 17 -78 -20 -47 -38 -43 -17
-16 54 90 71 -127 -127 -95 31
-36 -60 -127 36 -82 53 98 -28
103 10 76 12 83 26 41 -16
52 10 -73 37 -103 -55 -53 30
-3 50 98 54 -104 -97 -104 43
-13 7 -23 -94 -101 102 67 71
127 -56 80 -62 122 91 -39 -112
73 61 -118 -3 -81 -38 -14 59
00000000: 817f 2731 68e1 81dd 28cf 4a32 b9e1 07f4
00000010: c9e2 2704 4ef4 c0d7 f626 e4f7 bf81 11f2
00000020: 9658 be55 f6e1 0c16 a381 4b48 e9ed 000b
00000030: 96f5 f2d1 32b1 8144 e821 2df9 d3be d406
00000040: c67f 814a e103 aee2 cabb 2a56 bd0d 0614
00000050: e332 fbe0 0606 d8df 2a17 4298 c0ba d61b
00000060: c150 9efd fbcb e0ff cee9 af57 cc0b 67f5
00000070: f246 4215 25e9 3db5 e2f2 7f81 cbaa f6fb
00000080: ef5a d053 f0f2 a0e3 d8b5 a735 1340 290f
00000090: 2d7f 2742 2b76 5156 e122 3bef fbac 1cf0
000000a0: ede8 df56 0097 afd4 55bf c37f de48 7fe6
000000b0: 447f 4812 2b7f 4848 e411 b2ec d1da d5ef
000000c0: f036 5a47 8181 a11f dcc4 8124 ae35 62e4
000000d0: 670a 4c0c 531a 29f0 340a b725 99c9 cb1e
000000e0: fd32 6236 989f 982b f307 e9a2 9b66 4347
000000f0: 7fc8 50c2 7a5b d990 493d 8afd afda f23b

tfl.pseudo_qconst13 i1 [64, 1, 1, 64]
9 43 83 34 27 -19 -42 85
-33 3 30 -52 1 14 1 47
7 -34 79 17 30 -52 -108 -33
37 12 -73 10 -19 -60 55 25
40 -79 26 -77 -59 -27 90 -34
-31 -44 -74 -50 17 32 75 50
69 -127 26 72 -17 -10 -42 33
-94 -5 -31 -16 42 22 -30 -8
-77 8 18 47 -92 9 -7 -75
-16 -10 -25 81 82 31 43 13
95 -58 -57 -36 -54 -10 -20 85
-59 41 -62 -55 -2 107 -60 28
10 -1 -19 -49 10 -14 -6 -17
29 34 43 26 85 -91 -35 -40
4 17 -9 -52 -3 -14 -127 19
112 -19 -48 16 -56 -5 -126 -13
-8 53 17 127 68 14 36 20
24 48 52 66 108 -6 14 -22
64 49 49 21 45 48 -31 -70
17 -14 32 -47 4 -22 -36 8
113 -16 43 19 95 48 19 29
40 17 -30 18 -26 -37 15 57
14 -8 3 -48 -4 -9 -1 8
2 13 19 32 -46 10 48 -40
28 24 0 37 -11 49 -19 -13
-22 47 8 -53 -48 60 -64 62
-12 -34 31 29 -37 -2 -22 -46
-37 -126 -25 29 48 10 -76 -56
29 16 25 80 -31 -1 49 -40
1 127 -55 58 1 -94 79 85
-49 -12 36 20 79 -24 1 62
-3 -13 -60 -23 44 -50 -29 8
00000000: 092b 5322 1bed d655 df03 1ecc 010e 012f
00000010: 07de 4f11 1ecc 94df 250c b70a edc4 3719
00000020: 28b1 1ab3 c5e5 5ade e1d4 b6ce 1120 4b32
00000030: 4581 1a48 eff6 d621 a2fb e1f0 2a16 e2f8
00000040: b308 122f a409 f9b5 f0f6 e751 521f 2b0d
00000050: 5fc6 c7dc caf6 ec55 c529 c2c9 fe6b c41c
00000060: 0aff edcf 0af2 faef 1d22 2b1a 55a5 ddd8
00000070: 0411 f7cc fdf2 8113 70ed d010 c8fb 82f3
00000080: f835 117f 440e 2414 1830 3442 6cfa 0eea
00000090: 4031 3115 2d30 e1ba 11f2 20d1 04ea dc08
000000a0: 71f0 2b13 5f30 131d 2811 e212 e6db 0f39
000000b0: 0ef8 03d0 fcf7 ff08 020d 1320 d20a 30d8
000000c0: 1c18 0025 f531 edf3 ea2f 08cb d03c c03e
000000d0: f4de 1f1d dbfe ead2 db82 e71d 300a b4c8
000000e0: 1d10 1950 e1ff 31d8 017f c93a 01a2 4f55
000000f0: cff4 2414 4fe8 013e fdf3 c4e9 2cce e308

tfl.pseudo_qconst15 i1 [1, 11, 1, 32]
-127 -127 -127 41 -101 -35 -35 10
48 -80 127 -127 -127 127 -127 -121
-72 127 94 -127 -122 127 -49 -100
-77 -2 62 127 127 17 59 108
-89 -69 -95 29 -67 -104 -127 24
44 -10 65 -50 -24 89 -53 -127
-127 118 62 -41 -51 61 2 -81
-106 111 71 63 44 -76 -2 127
-35 -6 -84 71 -50 -121 -117 54
127 -127 125 -19 -37 44 37 -34
-87 6 14 -55 48 48 1 -108
-53 127 5 45 40 -44 14 78
4 -15 -106 88 -48 -127 -5 14
45 -84 70 -6 47 -12 58 42
-107 -92 62 -37 70 107 -78 -42
-61 58 3 -21 14 10 -72 -10
8 -87 -114 67 -31 -77 82 14
45 20 1 -54 75 -21 75 20
-39 -77 75 -99 -37 84 -100 -11
-91 -33 -10 -8 -5 -127 -82 -3
38 -40 -101 74 -2 -23 93 -127
-13 -51 9 24 87 -56 58 -29
4 -11 127 -104 -89 63 -127 24
-127 -49 -18 -14 -9 -119 -13 35
36 9 -68 63 90 -55 65 -101
23 -15 -48 95 -22 -39 28 51
-9 -22 26 -72 -127 -34 -25 -14
-67 -60 2 -70 -1 -118 58 70
15 8 -78 -81 127 14 119 -50
62 105 -20 80 -45 -12 -2 108
2 -47 -14 -78 -15 -45 59 53
-45 -43 10 -93 -7 77 103 52
00000000: 8181 8129 9bdd dd0a 30b0 7f81 817f 8187
00000010: b87f 5e81 867f cf9c b3fe 3e7f 7f11 3b6c
00000020: a7bb a11d bd98 8118 2cf6 41ce e859 cb81
00000030: 8176 3ed7 cd3d 02af 966f 473f 2cb4 fe7f
00000040: ddfa ac47 ce87 8b36 7f81 7ded db2c 25de
00000050: a906 0ec9 3030 0194 cb7f 052d 28d4 0e4e
00000060: 04f1 9658 d081 fb0e 2dac 46fa 2ff4 3a2a
00000070: 95a4 3edb 466b b2d6 c33a 03eb 0e0a b8f6
00000080: 08a9 8e43 e1b3 520e 2d14 01ca 4beb 4b14
00000090: d9b3 4b9d db54 9cf5 a5df f6f8 fb81 aefd
000000a0: 26d8 9b4a fee9 5d81 f3cd 0918 57c8 3ae3
000000b0: 04f5 7f98 a73f 8118 81cf eef2 f789 f323
000000c0: 2409 bc3f 5ac9 419b 17f1 d05f ead9 1c33
000000d0: f7ea 1ab8 81de e7f2 bdc4 02ba ff8a 3a46
000000e0: 0f08 b2af 7f0e 77ce 3e69 ec50 d3f4 fe6c
000000f0: 02d1 f2b2 f1d3 3b35 d3d5 0aa3 f94d 6734

tfl.pseudo_qconst17 i1 [1, 7, 1, 32]
-15 -25 28 -12 -62 -36 -122 -37
-32 -78 -49 -50 -82 -35 -127 -14
67 14 -37 125 81 69 65 72
26 58 -114 69 -117 123 57 78
-41 -19 -11 -21 -11 87 -12 -105
0 -60 -127 -69 -85 -65 -64 82
101 36 114 86 0 90 -25 -22
54 90 -127 -24 86 85 71 23
8 72 45 -70 -84 -68 52 -52
-64 -35 -88 -12 -96 -127 10 56
108 -14 92 38 28 127 -36 29
58 82 -102 -127 61 127 127 -29
33 -57 -59 -62 -94 -26 -19 -50
-9 89 102 -85 -119 -88 88 105
-19 -13 127 -72 40 69 -66 -64
79 -42 40 -127 66 56 125 -84
-18 -90 19 -14 -127 113 -1 81
-58 125 28 -127 -43 -3 -36 17
-37 51 19 -127 18 36 -96 -127
37 -127 -56 51 30 -5 23 -70
53 121 -36 30 -117 -127 110 127
-91 127 -84 -77 43 38 -81 -127
-127 67 113 4 47 88 22 -50
3 -88 115 -52 -127 38 -24 -106
127 127 -127 127 -122 -43 -127 10
-127 -71 -75 -82 127 -16 -54 -64
-24 127 -39 21 127 88 127 -103
127 -17 115 36 -85 -33 53 -127
00000000: f1e7 1cf4 c2dc 86db e0b2 cfce aedd 81f2
00000010: 430e db7d 5145 4148 1a3a 8e45 8b7b 394e
00000020: d7ed f5eb f557 f497 00c4 81bb abbf c052
00000030: 6524 7256 005a e7ea 365a 81e8 5655 4717
00000040: 0848 2dba acbc 34cc c0dd a8f4 a081 0a38
00000050: 6cf2 5c26 1c7f dc1d 3a52 9a81 3d7f 7fe3
00000060: 21c7 c5c2 a2e6 edce f759 66ab 89a8 5869
00000070: edf3 7fb8 2845 bec0 4fd6 2881 4238 7dac
00000080: eea6 13f2 8171 ff51 c67d 1c81 d5fd dc11
00000090: db33 1381 1224 a081 2581 c833 1efb 17ba
000000a0: 3579 dc1e 8b81 6e7f a57f acb3 2b26 af81
000000b0: 8143 7104 2f58 16ce 03a8 73cc 8126 e896
000000c0: 7f7f 817f 86d5 810a 81b9 b5ae 7ff0 cac0
000000d0: e87f d915 7f58 7f99 7fef 7324 abdf 3581

tfl.pseudo_qconst19 i1 [64, 1, 1, 32]
-96 -75 42 17 101 -38 -47 45
35 -127 54 -68 -36 -42 49 27
26 -6 -40 -14 16 1 -36 92
26 89 -117 84 39 13 125 13
-13 4 28 127 -40 -91 -21 79
12 -14 -73 -8 6 20 -10 -25
-19 -11 -3 111 28 20 -64 -12
69 -106 25 -6 -23 -42 -62 1
83 -25 -47 28 56 -32 76 -12
-50 -92 22 -60 82 71 -68 81
-26 -25 -30 96 -78 -7 19 34
127 -24 46 0 -33 -13 -24 81
-25 15 2 23 -50 15 127 -7
-53 103 -64 -6 43 57 2 49
6 -12 -23 5 100 4 -65 -95
21 44 2 -29 39 -7 91 -55
-56 -32 86 41 -112 -19 32 -90
-86 36 -19 -5 -37 26 112 -127
-21 52 23 78 62 2 -65 -69
71 5 35 45 45 23 8 29
-16 -12 -20 46 34 -96 19 21
24 12 -48 -127 35 39 27 -26
-20 61 21 48 74 65 55 48
41 -96 -55 26 -64 72 -50 101
-17 10 27 32 -21 0 -2 45
-46 15 13 13 34 -6 76 32
1 44 39 65 -30 -36 22 -12
-20 11 -47 50 9 23 -72 127
10 -76 20 -31 5 57 6 100
75 -102 -82 -92 -12 12 -76 -90
12 -82 -40 9 54 -67 -62 47
-127 35 -99 -6 7 42 -33 -16
00000000: a0b5 2a11 65da d12d 2381 36bc dcd6 311b
00000010: 1afa d8f2 1001 dc5c 1a59 8b54 270d 7d0d
00000020: f304 1c7f d8a5 eb4f 0cf2 b7f8 0614 f6e7
00000030: edf5 fd6f 1c14 c0f4 4596 19fa e9d6 c201
00000040: 53e7 d11c 38e0 4cf4 cea4 16c4 5247 bc51
00000050: e6e7 e260 b2f9 1322 7fe8 2e00 dff3 e851
00000060: e70f 0217 ce0f 7ff9 cb67 c0fa 2b39 0231
00000070: 06f4 e905 6404 bfa1 152c 02e3 27f9 5bc9
00000080: c8e0 5629 90ed 20a6 aa24 edfb db1a 7081
00000090: eb34 174e 3e02 bfbb 4705 232d 2d17 081d
000000a0: f0f4 ec2e 22a0 1315 180c d081 2327 1be6
000000b0: ec3d 1530 4a41 3730 29a0 c91a c048 ce65
000000c0: ef0a 1b20 eb00 fe2d d20f 0d0d 22fa 4c20
000000d0: 012c 2741 e2dc 16f4 ec0b d132 0917 b87f
000000e0: 0ab4 14e1 0539 0664 4b9a aea4 f40c b4a6
000000f0: 0cae d809 36bd c22f 8123 9dfa 072a dff0

tfl.pseudo_qconst21 i1 [1, 5, 1, 32]
127 -104 3 -127 9 6 -113 127
-15 40 -21 69 51 -127 -127 35
-97 -127 -127 -127 52 54 -25 21
17 -7 -127 1 -105 -127 45 -116
43 71 -77 -111 -127 -68 82 52
127 -3 -127 -50 -104 -102 10 65
-127 -32 8 -17 -119 127 -20 -119
64 -127 -120 70 114 -80 102 -127
-6 127 -127 -91 -116 -26 66 -106
75 -123 105 127 -67 -87 74 -32
-85 -31 97 -18 -104 -73 127 -79
101 -29 -81 -27 127 -5 -19 22
15 114 32 -68 51 127 127 -12
-2 -42 102 118 73 -86 27 -127
-127 -3 -15 -34 127 19 -52 -52
32 4 -111 115 -112 71 -97 107
43 108 96 -42 -28 -41 98 -60
23 127 -98 85 -127 -101 67 -114
-26 25 -46 22 103 35 4 -127
-127 85 -102 127 -56 6 -127 -61
00000000: 7f98 0381 0906 8f7f f128 eb45 3381 8123
00000010: 9f81 8181 3436 e715 11f9 8101 9781 2d8c
00000020: 2b47 b391 81bc 5234 7ffd 81ce 989a 0a41
00000030: 81e0 08ef 897f ec89 4081 8846 72b0 6681
00000040: fa7f 81a5 8ce6 4296 4b85 697f bda9 4ae0
00000050: abe1 61ee 98b7 7fb1 65e3 afe5 7ffb ed16
00000060: 0f72 20bc 337f 7ff4 fed6 6676 49aa 1b81
00000070: 81fd f1de 7f13 cccc 2004 9173 9047 9f6b
00000080: 2b6c 60d6 e4d7 62c4 177f 9e55 819b 438e
00000090: e619 d216 6723 0481 8155 9a7f c806 81c3

tfl.pseudo_qconst23 i1 [32, 5, 1, 40]
6 -25 -4 -3 12 7 23 -29
-76 -127 1 24 63 -10 -18 -21
-86 -44 -53 -82 -23 -31 23 -42
-9 16 37 -50 24 -24 30 -17
-25 -23 -34 -18 19 14 49 2
-12 1 4 -10 58 69 31 16
-79 -87 26 5 67 -41 -31 -76
-46 -37 -9 -28 -22 -5 -31 -28
-9 2 4 6 -6 24 24 -55
-68 -55 -5 -2 -1 -26 58 -14
11 -19 -21 12 84 31 43 34
-72 -43 -7 24 32 -44 -45 -56
-67 -59 -42 -110 -40 -25 3 -36
-38 7 0 -40 22 17 -3 -15
-67 -26 -44 14 23 37 33 -3
24 -23 -8 14 104 85 41 36
-6 -18 7 7 50 -16 52 4
-37 -47 -65 -15 -42 -24 -17 13
-11 24 23 -10 -21 -5 36 -29
-51 -30 3 40 23 3 35 -2
-29 32 21 52 70 28 36 -9
-38 -8 61 27 85 21 96 19
-30 1 -59 -23 -91 -64 -28 -6
16 3 27 -24 6 -2 33 -17
-51 -9 -16 32 1 36 49 20
66 12 42 21 -6 -15 -3 8
34 15 50 -26 50 41 66 58
65 16 63 21 -28 -73 -40 -63
-46 3 6 -8 34 42 55 5
31 -30 17 3 -7 -59 27 45
84 55 54 33 -11 -57 19 23
34 -13 41 -3 81 45 63 54
00000000: 06e7 fcfd 0c07 17e3 b481 0118 3ff6 eeeb
00000010: aad4 cbae e9e1 17d6 f710 25ce 18e8 1eef
00000020: e7e9 deee 130e 3102 f401 04f6 3a45 1f10
00000030: b1a9 1a05 43d7 e1b4 d2db f7e4 eafb e1e4
00000040: f702 0406 fa18 18c9 bcc9 fbfe ffe6 3af2
00000050: 0bed eb0c 541f 2b22 b8d5 f918 20d4 d3c8
00000060: bdc5 d692 d8e7 03dc da07 00d8 1611 fdf1
00000070: bde6 d40e 1725 21fd 18e9 f80e 6855 2924
00000080: faee 0707 32f0 3404 dbd1 bff1 d6e8 ef0d
00000090: f518 17f6 ebfb 24e3 cde2 0328 1703 23fe
000000a0: e320 1534 461c 24f7 daf8 3d1b 5515 6013
000000b0: e201 c5e9 a5c0 e4fa 1003 1be8 06fe 21ef
000000c0: cdf7 f020 0124 3114 420c 2a15 faf1 fd08
000000d0: 220f 32e6 3229 423a 4110 3f15 e4b7 d8c1
000000e0: d203 06f8 222a 3705 1fe2 1103 f9c5 1b2d
000000f0: 5437 3621 f5c7 1317 22f3 29fd 512d 3f36

tfl.pseudo_qconst24 i1 [1, 14, 1, 64] scale=0.04297913 zero_point=-128
0.0 0.0 0.0 0.0 0.0 0.0 0.0 0.0
0.0 0.0 0.0 0.0 0.0 0.0 0.0 0.0
0.0 0.0 0.0 0.0 0.0 0.0 0.0 0.0
0.0 0.0 0.0 0.0 0.0 0.0 0.0 0.0
0.0 0.0 0.0 0.0 0.0 0.0 0.0 0.0
0.0 0.0 0.0 0.0 0.0 0.0 0.0 0.0
0.0 0.0 0.0 0.0 0.0 0.0 0.0 0.0
0.0 0.0 0.0 0.0 0.0 0.0 0.0 0.0
0.0 0.0 0.0 0.0 0.0 0.0 0.0 0.0
0.0 0.0 0.0 0.0 0.0 0.0 0.0 0.0
0.0 0.0 0.0 0.0 0.0 0.0 0.0 0.0
0.0 0.0 0.0 0.0 0.0 0.0 0.0 0.0
0.0 0.0 0.0 0.0 0.0 0.0 0.0 0.0
0.0 0.0 0.0 0.0 0.0 0.0 0.0 0.0
0.0 0.0 0.0 0.0 0.0 0.0 0.0 0.0
0.0 0.0 0.0 0.0 0.0 0.0 0.0 0.0
0.0 0.0 0.0 0.0 0.0 0.0 0.0 0.0
0.0 0.0 0.0 0.0 0.0 0.0 0.0 0.0
0.0 0.0 0.0 0.0 0.0 0.0 0.0 0.0
0.0 0.0 0.0 0.0 0.0 0.0 0.0 0.0
0.0 0.0 0.0 0.0 0.0 0.0 0.0 0.0
0.0 0.0 0.0 0.0 0.0 0.0 0.0 0.0
0.0 0.0 0.0 0.0 0.0 0.0 0.0 0.0
0.0 0.0 0.0 0.0 0.0 0.0 0.0 0.0
0.0 0.0 0.0 0.0 0.0 0.0 0.0 0.0
0.0 0.0 0.0 0.0 0.0 0.0 0.0 0.0
0.0 0.0 0.0 0.0 0.0 0.0 0.0 0.0
0.0 0.0 0.0 0.0 0.0 0.0 0.0 0.0
0.0 0.0 0.0 0.0 0.0 0.0 0.0 0.0
0.0 0.0 0.0 0.0 0.0 0.0 0.0 0.0
0.0 0.0 0.0 0.0 0.0 0.0 0.0 0.0
0.0 0.0 0.0 0.0 0.0 0.0 0.0 0.0
00000000: 8080 8080 8080 8080 8080 8080 8080 8080
00000010: 8080 8080 8080 8080 8080 8080 8080 8080
00000020: 8080 8080 8080 8080 8080 8080 8080 8080
00000030: 8080 8080 8080 8080 8080 8080 8080 8080
00000040: 8080 8080 8080 8080 8080 8080 8080 8080
00000050: 8080 8080 8080 8080 8080 8080 8080 8080
00000060: 8080 8080 8080 8080 8080 8080 8080 8080
00000070: 8080 8080 8080 8080 8080 8080 8080 8080
00000080: 8080 8080 8080 8080 8080 8080 8080 8080
00000090: 8080 8080 8080 8080 8080 8080 8080 8080
000000a0: 8080 8080 8080 8080 8080 8080 8080 8080
000000b0: 8080 8080 8080 8080 8080 8080 8080 8080
000000c0: 8080 8080 8080 8080 8080 8080 8080 8080
000000d0: 8080 8080 8080 8080 8080 8080 8080 8080
000000e0: 8080 8080 8080 8080 8080 8080 8080 8080
000000f0: 8080 8080 8080 8080 8080 8080 8080 8080

tfl.pseudo_qconst25 i1 [1, 10, 1, 64] scale=0.0429962 zero_point=-128
0.0 0.0 0.0 0.0 0.0 0.0 0.0 0.0
0.0 0.0 0.0 0.0 0.0 0.0 0.0 0.0
0.0 0.0 0.0 0.0 0.0 0.0 0.0 0.0
0.0 0.0 0.0 0.0 0.0 0.0 0.0 0.0
0.0 0.0 0.0 0.0 0.0 0.0 0.0 0.0
0.0 0.0 0.0 0.0 0.0 0.0 0.0 0.0
0.0 0.0 0.0 0.0 0.0 0.0 0.0 0.0
0.0 0.0 0.0 0.0 0.0 0.0 0.0 0.0
0.0 0.0 0.0 0.0 0.0 0.0 0.0 0.0
0.0 0.0 0.0 0.0 0.0 0.0 0.0 0.0
0.0 0.0 0.0 0.0 0.0 0.0 0.0 0.0
0.0 0.0 0.0 0.0 0.0 0.0 0.0 0.0
0.0 0.0 0.0 0.0 0.0 0.0 0.0 0.0
0.0 0.0 0.0 0.0 0.0 0.0 0.0 0.0
0.0 0.0 0.0 0.0 0.0 0.0 0.0 0.0
0.0 0.0 0.0 0.0 0.0 0.0 0.0 0.0
0.0 0.0 0.0 0.0 0.0 0.0 0.0 0.0
0.0 0.0 0.0 0.0 0.0 0.0 0.0 0.0
0.0 0.0 0.0 0.0 0.0 0.0 0.0 0.0
0.0 0.0 0.0 0.0 0.0 0.0 0.0 0.0
0.0 0.0 0.0 0.0 0.0 0.0 0.0 0.0
0.0 0.0 0.0 0.0 0.0 0.0 0.0 0.0
0.0 0.0 0.0 0.0 0.0 0.0 0.0 0.0
0.0 0.0 0.0 0.0 0.0 0.0 0.0 0.0
0.0 0.0 0.0 0.0 0.0 0.0 0.0 0.0
0.0 0.0 0.0 0.0 0.0 0.0 0.0 0.0
0.0 0.0 0.0 0.0 0.0 0.0 0.0 0.0
0.0 0.0 0.0 0.0 0.0 0.0 0.0 0.0
0.0 0.0 0.0 0.0 0.0 0.0 0.0 0.0
0.0 0.0 0.0 0.0 0.0 0.0 0.0 0.0
0.0 0.0 0.0 0.0 0.0 0.0 0.0 0.0
0.0 0.0 0.0 0.0 0.0 0.0 0.0 0.0
00000000: 8080 8080 8080 8080 8080 8080 8080 8080
00000010: 8080 8080 8080 8080 8080 8080 8080 8080
00000020: 8080 8080 8080 8080 8080 8080 8080 8080
00000030: 8080 8080 8080 8080 8080 8080 8080 8080
00000040: 8080 8080 8080 8080 8080 8080 8080 8080
00000050: 8080 8080 8080 8080 8080 8080 8080 8080
00000060: 8080 8080 8080 8080 8080 8080 8080 8080
00000070: 8080 8080 8080 8080 8080 8080 8080 8080
00000080: 8080 8080 8080 8080 8080 8080 8080 8080
00000090: 8080 8080 8080 8080 8080 8080 8080 8080
000000a0: 8080 8080 8080 8080 8080 8080 8080 8080
000000b0: 8080 8080 8080 8080 8080 8080 8080 8080
000000c0: 8080 8080 8080 8080 8080 8080 8080 8080
000000d0: 8080 8080 8080 8080 8080 8080 8080 8080
000000e0: 8080 8080 8080 8080 8080 8080 8080 8080
000000f0: 8080 8080 8080 8080 8080 8080 8080 8080

tfl.pseudo_qconst26 i1 [1, 4, 1, 32] scale=1.0985696 zero_point=-128
0.0 0.0 0.0 0.0 0.0 0.0 0.0 0.0
0.0 0.0 0.0 0.0 0.0 0.0 0.0 0.0
0.0 0.0 0.0 0.0 0.0 0.0 0.0 0.0
0.0 0.0 0.0 0.0 0.0 0.0 0.0 0.0
0.0 0.0 0.0 0.0 0.0 0.0 0.0 0.0
0.0 0.0 0.0 0.0 0.0 0.0 0.0 0.0
0.0 0.0 0.0 0.0 0.0 0.0 0.0 0.0
0.0 0.0 0.0 0.0 0.0 0.0 0.0 0.0
0.0 0.0 0.0 0.0 0.0 0.0 0.0 0.0
0.0 0.0 0.0 0.0 0.0 0.0 0.0 0.0
0.0 0.0 0.0 0.0 0.0 0.0 0.0 0.0
0.0 0.0 0.0 0.0 0.0 0.0 0.0 0.0
0.0 0.0 0.0 0.0 0.0 0.0 0.0 0.0
0.0 0.0 0.0 0.0 0.0 0.0 0.0 0.0
0.0 0.0 0.0 0.0 0.0 0.0 0.0 0.0
0.0 0.0 0.0 0.0 0.0 0.0 0.0 0.0
00000000: 8080 8080 8080 8080 8080 8080 8080 8080
00000010: 8080 8080 8080 8080 8080 8080 8080 8080
00000020: 8080 8080 8080 8080 8080 8080 8080 8080
00000030: 8080 8080 8080 8080 8080 8080 8080 8080
00000040: 8080 8080 8080 8080 8080 8080 8080 8080
00000050: 8080 8080 8080 8080 8080 8080 8080 8080
00000060: 8080 8080 8080 8080 8080 8080 8080 8080
00000070: 8080 8080 8080 8080 8080 8080 8080 8080

tfl.pseudo_qconst27 i1 [1, 3, 1, 40] scale=0.101960786 zero_point=-128
0.0 0.0 0.0 0.0 0.0 0.0 0.0 0.0
0.0 0.0 0.0 0.0 0.0 0.0 0.0 0.0
0.0 0.0 0.0 0.0 0.0 0.0 0.0 0.0
0.0 0.0 0.0 0.0 0.0 0.0 0.0 0.0
0.0 0.0 0.0 0.0 0.0 0.0 0.0 0.0
0.0 0.0 0.0 0.0 0.0 0.0 0.0 0.0
0.0 0.0 0.0 0.0 0.0 0.0 0.0 0.0
0.0 0.0 0.0 0.0 0.0 0.0 0.0 0.0
0.0 0.0 0.0 0.0 0.0 0.0 0.0 0.0
0.0 0.0 0.0 0.0 0.0 0.0 0.0 0.0
0.0 0.0 0.0 0.0 0.0 0.0 0.0 0.0
0.0 0.0 0.0 0.0 0.0 0.0 0.0 0.0
0.0 0.0 0.0 0.0 0.0 0.0 0.0 0.0
0.0 0.0 0.0 0.0 0.0 0.0 0.0 0.0
0.0 0.0 0.0 0.0 0.0 0.0 0.0 0.0
00000000: 8080 8080 8080 8080 8080 8080 8080 8080
00000010: 8080 8080 8080 8080 8080 8080 8080 8080
00000020: 8080 8080 8080 8080 8080 8080 8080 8080
00000030: 8080 8080 8080 8080 8080 8080 8080 8080
00000040: 8080 8080 8080 8080 8080 8080 8080 8080
00000050: 8080 8080 8080 8080 8080 8080 8080 8080
00000060: 8080 8080 8080 8080 8080 8080 8080 8080
00000070: 8080 8080 8080 8080

tfl.pseudo_qconst28 i1 [1, 36, 1, 64] scale=0.03140452 zero_point=-128
0.0 0.0 0.0 0.0 0.0 0.0 0.0 0.0
0.0 0.0 0.0 0.0 0.0 0.0 0.0 0.0
0.0 0.0 0.0 0.0 0.0 0.0 0.0 0.0
0.0 0.0 0.0 0.0 0.0 0.0 0.0 0.0
0.0 0.0 0.0 0.0 0.0 0.0 0.0 0.0
0.0 0.0 0.0 0.0 0.0 0.0 0.0 0.0
0.0 0.0 0.0 0.0 0.0 0.0 0.0 0.0
0.0 0.0 0.0 0.0 0.0 0.0 0.0 0.0
0.0 0.0 0.0 0.0 0.0 0.0 0.0 0.0
0.0 0.0 0.0 0.0 0.0 0.0 0.0 0.0
0.0 0.0 0.0 0.0 0.0 0.0 0.0 0.0
0.0 0.0 0.0 0.0 0.0 0.0 0.0 0.0
0.0 0.0 0.0 0.0 0.0 0.0 0.0 0.0
0.0 0.0 0.0 0.0 0.0 0.0 0.0 0.0
0.0 0.0 0.0 0.0 0.0 0.0 0.0 0.0
0.0 0.0 0.0 0.0 0.0 0.0 0.0 0.0
0.0 0.0 0.0 0.0 0.0 0.0 0.0 0.0
0.0 0.0 0.0 0.0 0.0 0.0 0.0 0.0
0.0 0.0 0.0 0.0 0.0 0.0 0.0 0.0
0.0 0.0 0.0 0.0 0.0 0.0 0.0 0.0
0.0 0.0 0.0 0.0 0.0 0.0 0.0 0.0
0.0 0.0 0.0 0.0 0.0 0.0 0.0 0.0
0.0 0.0 0.0 0.0 0.0 0.0 0.0 0.0
0.0 0.0 0.0 0.0 0.0 0.0 0.0 0.0
0.0 0.0 0.0 0.0 0.0 0.0 0.0 0.0
0.0 0.0 0.0 0.0 0.0 0.0 0.0 0.0
0.0 0.0 0.0 0.0 0.0 0.0 0.0 0.0
0.0 0.0 0.0 0.0 0.0 0.0 0.0 0.0
0.0 0.0 0.0 0.0 0.0 0.0 0.0 0.0
0.0 0.0 0.0 0.0 0.0 0.0 0.0 0.0
0.0 0.0 0.0 0.0 0.0 0.0 0.0 0.0
0.0 0.0 0.0 0.0 0.0 0.0 0.0 0.0
00000000: 8080 8080 8080 8080 8080 8080 8080 8080
00000010: 8080 8080 8080 8080 8080 8080 8080 8080
00000020: 8080 8080 8080 8080 8080 8080 8080 8080
00000030: 8080 8080 8080 8080 8080 8080 8080 8080
00000040: 8080 8080 8080 8080 8080 8080 8080 8080
00000050: 8080 8080 8080 8080 8080 8080 8080 8080
00000060: 8080 8080 8080 8080 8080 8080 8080 8080
00000070: 8080 8080 8080 8080 8080 8080 8080 8080
00000080: 8080 8080 8080 8080 8080 8080 8080 8080
00000090: 8080 8080 8080 8080 8080 8080 8080 8080
000000a0: 8080 8080 8080 8080 8080 8080 8080 8080
000000b0: 8080 8080 8080 8080 8080 8080 8080 8080
000000c0: 8080 8080 8080 8080 8080 8080 8080 8080
000000d0: 8080 8080 8080 8080 8080 8080 8080 8080
000000e0: 8080 8080 8080 8080 8080 8080 8080 8080
000000f0: 8080 8080 8080 8080 8080 8080 8080 8080

tfl.pseudo_qconst29 i1 [1, 22, 1, 64] scale=0.053046204 zero_point=-128
0.0 0.0 0.0 0.0 0.0 0.0 0.0 0.0
0.0 0.0 0.0 0.0 0.0 0.0 0.0 0.0
0.0 0.0 0.0 0.0 0.0 0.0 0.0 0.0
0.0 0.0 0.0 0.0 0.0 0.0 0.0 0.0
0.0 0.0 0.0 0.0 0.0 0.0 0.0 0.0
0.0 0.0 0.0 0.0 0.0 0.0 0.0 0.0
0.0 0.0 0.0 0.0 0.0 0.0 0.0 0.0
0.0 0.0 0.0 0.0 0.0 0.0 0.0 0.0
0.0 0.0 0.0 0.0 0.0 0.0 0.0 0.0
0.0 0.0 0.0 0.0 0.0 0.0 0.0 0.0
0.0 0.0 0.0 0.0 0.0 0.0 0.0 0.0
0.0 0.0 0.0 0.0 0.0 0.0 0.0 0.0
0.0 0.0 0.0 0.0 0.0 0.0 0.0 0.0
0.0 0.0 0.0 0.0 0.0 0.0 0.0 0.0
0.0 0.0 0.0 0.0 0.0 0.0 0.0 0.0
0.0 0.0 0.0 0.0 0.0 0.0 0.0 0.0
0.0 0.0 0.0 0.0 0.0 0.0 0.0 0.0
0.0 0.0 0.0 0.0 0.0 0.0 0.0 0.0
0.0 0.0 0.0 0.0 0.0 0.0 0.0 0.0
0.0 0.0 0.0 0.0 0.0 0.0 0.0 0.0
0.0 0.0 0.0 0.0 0.0 0.0 0.0 0.0
0.0 0.0 0.0 0.0 0.0 0.0 0.0 0.0
0.0 0.0 0.0 0.0 0.0 0.0 0.0 0.0
0.0 0.0 0.0 0.0 0.0 0.0 0.0 0.0
0.0 0.0 0.0 0.0 0.0 0.0 0.0 0.0
0.0 0.0 0.0 0.0 0.0 0.0 0.0 0.0
0.0 0.0 0.0 0.0 0.0 0.0 0.0 0.0
0.0 0.0 0.0 0.0 0.0 0.0 0.0 0.0
0.0 0.0 0.0 0.0 0.0 0.0 0.0 0.0
0.0 0.0 0.0 0.0 0.0 0.0 0.0 0.0
0.0 0.0 0.0 0.0 0.0 0.0 0.0 0.0
0.0 0.0 0.0 0.0 0.0 0.0 0.0 0.0
00000000: 8080 8080 8080 8080 8080 8080 8080 8080
00000010: 8080 8080 8080 8080 8080 8080 8080 8080
00000020: 8080 8080 8080 8080 8080 8080 8080 8080
00000030: 8080 8080 8080 8080 8080 8080 8080 8080
00000040: 8080 8080 8080 8080 8080 8080 8080 8080
00000050: 8080 8080 8080 8080 8080 8080 8080 8080
00000060: 8080 8080 8080 8080 8080 8080 8080 8080
00000070: 8080 8080 8080 8080 8080 8080 8080 8080
00000080: 8080 8080 8080 8080 8080 8080 8080 8080
00000090: 8080 8080 8080 8080 8080 8080 8080 8080
000000a0: 8080 8080 8080 8080 8080 8080 8080 8080
000000b0: 8080 8080 8080 8080 8080 8080 8080 8080
000000c0: 8080 8080 8080 8080 8080 8080 8080 8080
000000d0: 8080 8080 8080 8080 8080 8080 8080 8080
000000e0: 8080 8080 8080 8080 8080 8080 8080 8080
000000f0: 8080 8080 8080 8080 8080 8080 8080 8080
